Assets/Match3/Scripts/_/Match3AgentAI_20x10x6_S_4X_10Moves.onnx (onnx, 38375 bytes, 6 tensors)

52 f4 [1200]
00000000: 0a1b 473b cad5 ee3d 0a1b 473b 0a1b 473b
00000010: 0a1b 473b 9bc1 ee3d 0a1b 473b 0a1b 473b
00000020: 0a1b 473b 0a1b 473b 6ac9 8c3b 0a1b 473b
00000030: 2b98 de3b 0a1b 473b 0a1b 473b fa19 c73b
00000040: 0a1b 473b 0a1b 473b 0a1b 473b 7113 253c
00000050: 0a1b 473b 473a 3a3c 0a1b 473b e86d ac3b
00000060: dec9 8c3b e1c9 8c3b 0a1b 473b 4d85 f73c
00000070: b236 4d3c 4d1b 073d c17f 103d fc44 f63c
00000080: db23 ca3c 5fb0 033c 71d9 103e 9ec2 063e
00000090: af5b 263d 7119 c73b 088e 373d da6c ac3b
000000a0: ffc7 0c3c 714e 813c 5ac4 403c 65f2 8e3c
000000b0: d8b4 0c3d c16e 683d efa3 133e 0f28 233e
000000c0: 1ffd ff3e 332c 523d d0a7 213d 4acd ca3d
000000d0: a270 323d fac3 ff3e 1034 283d d4a3 ff3e
000000e0: f70d ca3d 10d1 aa3d cee3 fe3e 3450 1a3d
000000f0: c581 0d3e 11c3 f93d 2cbc e93e a9bd a13e
00000100: 9db6 7e3e f4f5 ff3e 989a 093e d400 3c3e
00000110: 10da c93e 5a88 7e3e 5bd9 013e debf 6c3e
00000120: 7f9c 2f3e 1e29 943d 8d1a 073d 8476 fc3c
00000130: ba0b fd3d 05a3 653e bce7 fe3c 1734 ba3c
00000140: ec5e 9d3c 146c 783d fb4f 193d 99f3 af3c
00000150: e119 913c e045 c73e 3b63 b13d f68d 373d
00000160: 502c 2d3d 5df0 cb3e 71ca 173d 87f3 fd3e
00000170: c8ac fd3e 96cf 183d a101 863c 1b1b 073d
00000180: b0bd f33c 7564 1d3c 914e 953c a76c ac3b
00000190: 06c9 1d3d 8bf1 583c abc7 0c3c b4c5 163d
000001a0: 8981 fe3e 7069 2c3c 7b69 fe3e c015 473c
000001b0: 9e6c ac3b 8519 c73b 5fc9 8c3b ad15 473c
000001c0: cbd6 f33b 3f19 c73b 5a98 de3b b574 333c
000001d0: ec64 993c 8d6d ac3b dfc7 0c3c a26a 2c3c
000001e0: 0a1b 473b cb6c ac3b a889 ea3d 27d9 b63c
000001f0: 0a1b 473b 18fe ee3d 0a1b 473b bcc9 8c3b
00000200: 0a1b 473b 0698 de3b c1c9 8c3b dec9 8c3b
00000210: 8715 473c 1529 343d dab0 033c 816d ac3b
00000220: 0a1b 473b ec91 293d 18c6 7d3c 00ed 443d
00000230: 0a1b 473b c864 1d3c 3370 323d a613 253c
00000240: c63a 3a3c 9c65 1d3c 85f2 583c 37ca 5a3d
00000250: cf07 483d 6a14 253c 21e9 ef3c bd32 013e
00000260: f14e 1c3d db53 4a3d 3f19 c73b d7a9 123e
00000270: 42cf 553d 56cc 043d 264b 153e 3fb0 033c
00000280: 51d4 213e cc51 153c fb50 5f3d 34f4 af3c
00000290: 12c6 933d 2fe1 4c3e 40f8 663e 2c5f 6c3d
000002a0: 5d7d 953e c010 3b3e 31f6 3e3d f8a5 5d3e
000002b0: 0738 4f3d fdfc 973d 9997 f33d 001a fc3e
000002c0: 2279 513e d9e0 843d edd6 ff3e 3a33 a73d
000002d0: 1547 f73e cdeb 3a3e bfcf d53d 40bf 563e
000002e0: 6ea6 ff3e 55a0 da3d e3bf 7f3e 5ac4 ff3e
000002f0: 93ee e13e fc55 ab3e e411 1d3e 3ef3 413e
00000300: 3e92 1f3e 5a65 f73e a68b c83d 1089 7e3d
00000310: 676d 593e 654a e73e 157e 983d 33e1 9e3d
00000320: e604 173e 7fe1 9e3d 3701 533e 1c8f 893d
00000330: dab8 ce3e b4ef e13d f5a3 be3e e68f 8f3d
00000340: 2d8e 253e 2751 fc3e 68c5 e23d 056d b53e
00000350: 244f 193d efd9 cc3d 420a 033d 89c2 a73e
00000360: 6566 ff3e 8bf5 053d 07f1 233e 3570 693c
00000370: 1e04 e43c c0fb fd3e c04c 953c 1b7d fe3e
00000380: 1c1d c13d 0113 633d 3628 533c b3b4 fd3e
00000390: 1202 863c abf1 fd3e 1f14 643c bf91 b23d
000003a0: 3383 fe3e 3131 143d b26c ac3b 5c7b fe3e
000003b0: 91cc 043d b65f ac3d c48d 8a3c 23f8 fd3e
000003c0: 1805 eb3d ac62 ef3d dcc9 8c3b 27d9 b63c
000003d0: 0a1b 473b 0a1b 473b 27d9 b63c 31e8 ef3c
000003e0: 8e70 663d e951 153c 6b0d 003d 8b5e e53c
000003f0: ead1 743e 89f3 8e3c d9ef 753d 5c4d 953c
0.0030381107 0.11661871 0.0030381107 0.0030381107 0.0030381107 0.11658021 0.0030381107 0.0030381107
0.0030381107 0.0030381107 0.0042964714 0.0030381107 0.006793042 0.0030381107 0.0030381107 0.0060760947
0.0030381107 0.0030381107 0.0030381107 0.010075436 0.0030381107 0.011366433 0.0030381107 0.0052621253
0.0042965254 0.004296527 0.0030381107 0.03021493 0.012525247 0.03298502 0.035278086 0.030062191
0.0246753 0.008037656 0.14145447 0.13160178 0.04061478 0.006076031 0.044813186 0.0052619996
0.008592605 0.015784474 0.011765564 0.017449567 0.034352154 0.05674625 0.14418004 0.1593325
0.49997804 0.051311683 0.03946668 0.09902437 0.043564446 0.49954206 0.041065276 0.49929678
0.09865945 0.08340657 0.49783176 0.037674144 0.13819034 0.12195409 0.45651376 0.31590012
0.24874349 0.49992335 0.13437879 0.18359691 0.3942418 0.24856701 0.12680571 0.23120067
0.17149542 0.07234405 0.032984305 0.030818231 0.12355752 0.22425468 0.031116359 0.022729916
0.019210301 0.060649946 0.03742979 0.021478461 0.017712535 0.38920498 0.08661505 0.04481312
0.042278588 0.3983182 0.037058298 0.4959986 0.49545884 0.037307344 0.016358199 0.032984834
0.029753536 0.00960647 0.01822594 0.005261976 0.03852179 0.013241182 0.008592526 0.03680964
0.49708202 0.010523185 0.4968985 0.012151182 0.0052619716 0.00607604 0.0042964662 0.012151164
0.007441377 0.0060760076 0.006793064 0.010953118 0.018724881 0.005262083 0.008592575 0.01052347
0.0030381107 0.0052619926 0.11452037 0.022320343 0.0030381107 0.11669558 0.0030381107 0.0042965095
0.0030381107 0.006793025 0.004296512 0.0042965254 0.012151129 0.04398449 0.00803777 0.0052620773
0.0030381107 0.041398928 0.015489124 0.048077583 0.0030381107 0.009606548 0.043564033 0.010075485
0.011366552 0.009606745 0.013241415 0.053415503 0.04883557 0.010075668 0.02928597 0.12617011
0.038161222 0.049396377 0.0060760076 0.14322601 0.05219961 0.032421432 0.14579448 0.008037626
0.15803649 0.00911374 0.05452059 0.02147875 0.07215513 0.20007776 0.22555637 0.05770795
0.29197207 0.18268108 0.046621505 0.21645343 0.05059054 0.074213006 0.11894149 0.49238586
0.20456365 0.06488199 0.49968663 0.081640676 0.4829642 0.18254013 0.10440015 0.20971394
0.49931663 0.10675112 0.24975543 0.49954492 0.4412733 0.33464038 0.15338856 0.18940446
0.1558313 0.48319513 0.09792261 0.06214243 0.2123314 0.45173946 0.07445923 0.07757797
0.14747962 0.07757854 0.20605932 0.06716749 0.40375406 0.11032048 0.37234464 0.07009868
0.16167517 0.49280664 0.110728085 0.35434738 0.03742899 0.10002505 0.031992204 0.32765606
0.49882808 0.03270487 0.16009913 0.014247944 0.027833994 0.49606133 0.018225074 0.49704823
0.0942938 0.055438045 0.012888005 0.49551925 0.01635841 0.4959844 0.013920813 0.08719205
0.49709472 0.036179725 0.005261981 0.4970349 0.032421652 0.08416693 0.016913302 0.49603376
0.11475581 0.11688742 0.0042965245 0.022320343 0.0030381107 0.0030381107 0.022320343 0.029285522
0.056259684 0.009113767 0.031262796 0.027999183 0.23908201 0.017450111 0.06004319 0.018225364

action_model._discrete_distribution.branches.0.bias f4 [370]
00000000: 0000 0000 0000 0000 25e1 eabc 0cbf f1bb
00000010: f3a4 e43c 4324 d33b 65f2 26bc 2082 03bd
00000020: bf78 98bd a1f2 c5ba 933b 2d3d 915d e3bd
00000030: 23f3 6f3c c4ed 563d beb2 ab3c 026c 0fbd
00000040: cf7e 403d 1671 99bc 68bd e8bc def7 873c
00000050: 46ee babc b17f a6bc 4d3b 09bd 1240 a33d
00000060: 2a85 fcbc 9b03 5fbb 5d2c c4bc f63c e23a
00000070: f613 b33c 90cf 1cbd 64f5 613d 5d79 963d
00000080: 6e24 283d 5124 b2bd a6b9 0f3e 9626 4a3c
00000090: fd63 b23c bb8b 0fbd 6fac d5bd 15ec 64bd
000000a0: eb8d b3bd 67c4 dd3b 70d5 5dbd 964c cebc
000000b0: f21b c63c 16f5 cc3c 7858 823d c915 8c3c
000000c0: 6ddb 75bd a8ec f03c a867 6a3c c69c 5f3e
000000d0: 1782 523e 02b1 ad3d 8fee 1ebd c91b 7b3c
000000e0: 2390 c43d 7145 e23c 9174 043e 2b9b 91bd
000000f0: 1afe 75bd ed98 41bd 9e88 afbd 15b3 143c
00000100: 9421 f1bc 4309 c53c 2232 d33d 1976 623e
00000110: e8bc ff3d 72e4 713d 7169 adbc dddf 98bc
00000120: 7816 523d dae6 873b 91b6 36bb d948 0c3e
00000130: b9c5 9fbd e6fe edbb e81f 7abd bc52 c1ba
00000140: cccd 35bc 4739 c4bc dffc 79bc d0f5 13bd
00000150: 838e 8cbc 7e70 17bb 2d29 bebb 9cb7 973c
00000160: f6b1 9abc c2ff 633d 0fdf c4bd 43c5 b0bb
00000170: 9366 b83d 2c34 fb3c b846 b7bd a3cc a8bd
00000180: 3a14 69bd aa9d 863e b065 833d 48a1 5b3d
00000190: e83b 783d 4b97 9e3d 4889 22bd 4e67 2cbc
000001a0: 149f cebb 82e3 8bbd 6efb 27bd ed00 bdbd
000001b0: ec10 94bb b15c 263a 8329 31bd 69be e3bc
000001c0: 4ed6 af3d cc53 9bbd 99e7 f7bd 405e 88bd
000001d0: 569b f9bd db94 41bd 28b3 bdbc 3adc 453d
000001e0: b673 b23c 0e44 9e3b 098f ebbc 4756 fa3c
000001f0: b11b 273d 157d 67bc 71c1 5dbb 0b11 47bd
00000200: d76a 9bbd 3ff8 5f3c 374e af3a 67d1 efbd
00000210: d843 b0bc e019 903d 72ba 1ebd aa5f a4bd
00000220: 2d9b c3bd 3dd0 2dbd 0f44 9abb 1768 443c
00000230: 98d0 50bd b1bc f4bc 3244 c13c 7943 e13d
00000240: 004c 32be 92bc b6bd b50d 2c3d f54e d3bd
00000250: 0aba b8bd 772e 14bd 8b40 38bd ff50 a1bd
00000260: 2bee bdbd 64f7 4bbd c325 8a3b dea6 75bd
00000270: 845c a1bd 07af ecbc b9d8 6ebc b180 693c
00000280: 4e20 88bd f486 bdbd 7249 2fbd 499b 8fbd
00000290: 2cb0 7d3c 9e4d 20bc 28aa 563d 7f27 d1bd
000002a0: cfa5 423b 82aa a0bb fec1 7fbc 3ed2 5dbc
000002b0: 09fa c8bc 15e1 2abd 7a51 2d3d 6528 85bd
000002c0: 285b 9e3c 2aa7 6bbd a3a7 6cbc 4c9b 59bd
000002d0: 3907 b9bd d466 dc3c cd3c 52bd 7064 f4bc
000002e0: c696 11bc a556 01bd b849 80bd 3352 b8bc
000002f0: 398f bd3b d378 833d 6920 cfbd 19f8 00bc
00000300: 18f0 05bd b0d4 dcbc 5673 55bd 4001 9c3d
00000310: ca9d edbc 30c4 6a3c 338b 08bd a249 413c
00000320: a80d a53d 5530 2e3c a9b4 acbb 79f5 77bd
00000330: dfc6 17bb 6cfa dcbd 3b1b 503c d82d 21bc
00000340: 5afa 523c 497e c73c 8b56 fa3a 20e0 803c
00000350: 0a75 9d3d 38da 0dbc af13 353d 7d2f 373c
00000360: af3b db3d 2c2d 24bd 07dd 3b3d 700e a03c
00000370: e35f 783e 30f5 6bbd 9d89 003d a766 d83d
00000380: e50e 063e ae40 f23b 9d75 c7bb 25d0 afbd
00000390: 4848 56bd e140 84bd c1d7 d53c f5ba 06be
000003a0: 8078 8fba 4267 37bd f95b e5bc 98ce 93bd
000003b0: 75e8 57bc eb42 e6bc b4b9 b73c 7436 cd3d
000003c0: 2984 9f3b 48d1 cfbb f76b 103d f77a 4f3d
000003d0: d9ce 253d e3f4 51bd ee0f cf3c 849c c93c
000003e0: 4f03 32bd 4f98 09be 7a3c b23c b2f7 d03c
000003f0: 7769 a9bd e8cf 233e f900 2bbd 5a6f 63bb
0.0 0.0 -0.02867181 -0.007377511 0.027910685 0.0064435317 -0.010189627 -0.03210652
-0.074449055 -0.0015102216 0.042293143 -0.11101831 0.014645371 0.052472845 0.020959254 -0.035015114
0.046995934 -0.018730681 -0.028410628 0.016597684 -0.022818696 -0.02032456 -0.03350382 0.07971205
-0.030825216 -0.0034029249 -0.023946935 0.0017260599 0.021860104 -0.038283885 0.055165663 0.07347367
0.041050367 -0.08698333 0.14035663 0.012338301 0.021776194 -0.035045367 -0.1043328 -0.055889208
-0.08767303 0.0067677977 -0.054158628 -0.025183003 0.024183247 0.02501921 0.0636453 0.017100232
-0.060023714 0.029409721 0.01430694 0.21837148 0.20557438 0.08481027 -0.038801726 0.015326449
0.095978044 0.027621003 0.12935092 -0.07109674 -0.060056783 -0.047264982 -0.085709795 0.0090759
-0.029434957 0.024052268 0.103122965 0.22115363 0.12487203 0.059055753 -0.021168442 -0.018661434
0.05129096 0.0041473927 -0.0027879814 0.13699664 -0.078013845 -0.0072630523 -0.061065584 -0.0014749388
-0.011096429 -0.023953093 -0.015258043 -0.036123097 -0.017157799 -0.0023107822 -0.0058032484 0.018520169
-0.018883687 0.05566383 -0.096128576 -0.005394609 0.090039395 0.030664526 -0.089490354 -0.08242156
-0.056904055 0.26292163 0.0641588 0.053620607 0.060604006 0.077437006 -0.039681703 -0.010522677
-0.0063055847 -0.06830503 -0.041011266 -0.09228692 -0.004518619 0.00063462096 -0.04325248 -0.027800756
0.08585797 -0.07584342 -0.121047206 -0.06658602 -0.12187831 -0.0472611 -0.023156717 0.048305728
0.02178369 0.00482989 -0.028754728 0.030558718 0.040797893 -0.014128943 -0.0033837224 -0.048600238
-0.075887375 0.013670026 0.001337475 -0.11709862 -0.021516725 0.07036185 -0.038752027 -0.08026059
-0.09551082 -0.04243492 -0.0047078202 0.011987708 -0.05098018 -0.029875131 0.023592088 0.109991975
-0.17411804 -0.08922686 0.04200526 -0.10317794 -0.09019859 -0.036177125 -0.044983428 -0.07876777
-0.092739426 -0.049796477 0.0042159273 -0.05997359 -0.07878974 -0.028892053 -0.014578038 0.014251874
-0.06646787 -0.09254256 -0.042794652 -0.0701204 0.015483897 -0.00978413 0.052408367 -0.102126114
0.002970088 -0.0049031386 -0.015610216 -0.013538895 -0.024533289 -0.04171856 0.04231403 -0.06501845
0.019330576 -0.057532467 -0.014444265 -0.05312662 -0.09034581 0.026904501 -0.051327515 -0.029833049
-0.008886045 -0.03157677 -0.06264061 -0.022500133 0.0057848957 0.0641953 -0.101136036 -0.007871651
-0.032699674 -0.026956886 -0.052111946 0.07617426 -0.029005904 0.014329001 -0.033335876 0.011797341
0.08059245 0.01063164 -0.00527056 -0.060536835 -0.0023159308 -0.10789952 0.012701805 -0.00983759
0.012877071 0.02435221 0.0019099278 0.015731871 0.07688339 -0.008657984 0.044208225 0.011180756
0.10704743 -0.04008214 0.045865085 0.019538134 0.24255328 -0.057606876 0.03138124 0.105664544
0.1309162 0.0073929643 -0.0060870186 -0.08584622 -0.052315027 -0.06457687 0.026103856 -0.13157256
-0.0010945946 -0.04477621 -0.027997958 -0.07217139 -0.013177981 -0.02810808 0.022427417 0.10020152
0.0048680496 -0.006342087 0.035259213 0.050654378 0.04048047 -0.051258933 0.02527615 0.024610765
-0.043460187 -0.13437007 0.021757353 0.025508735 -0.08272069 0.15997279 -0.041748974 -0.0034703822

action_model._discrete_distribution.branches.0.weight f4 [370, 4]
00000000: 5224 2ebd ed5f 0a3b 4d87 48bc 147f c43c
00000010: 9bef 1fbc 596d 34bd f770 763d bc43 123d
00000020: db52 a73d b97a 07bd 9115 1b3d 8296 003d
00000030: cc1c d13b 7679 0d3d be70 793d 3bc0 5c3d
00000040: 04e2 8dbd 875e 153e 9cfe 41bc dc5c 2e3d
00000050: 71b0 e4bd 8ded a9bd a084 b6bd fa43 363d
00000060: fef6 b53c 86f7 78bd 2ca2 cabd 753e ebbd
00000070: fd3d ebbc 9eac f7bc 98e8 9dbd 99ef 7d3d
00000080: a913 23be 4bea 933d 630a 53bb 3c6f 0bbe
00000090: 5bb3 683d 0c51 27bd d967 20bd 5ff2 493d
000000a0: f85a 19be 3e84 0d3e 5f74 d93d 60c3 b13d
000000b0: 3721 2dbe 43cc d3bc 0881 043d 36e5 0dbe
000000c0: c74e 4b3d 1e24 2dbe f799 c5bc 109a 32bd
000000d0: e486 84bc 0a10 b43d 1c53 71ba 7f73 e5bd
000000e0: 140a ffbc 83c6 26be 3171 7d3d aad3 54bb
000000f0: 5724 d5bd b90a 153e c1cf 693d 6475 bcbd
00000100: 02b8 97bb 17c3 ad3c f5be 84bc f61d b63d
00000110: 53fe 2dbd 11f1 153c ef51 763d aead 673b
00000120: c2fd a7bd 4e53 b3bd 6891 ccbd e995 93bd
00000130: 377e a0b9 c81d 6abd 2209 8bbc 403d 85bd
00000140: 9496 883c dc89 c9bc abad 5fbc 88e5 b3bd
00000150: f200 e7bc 7e13 12bc f83e a73c d50b 4fbb
00000160: 5b35 e2bc 99c0 99bd 9562 17bc a3e4 c7bd
00000170: a350 9e3d 3df3 d5ba 1d71 bdbd 5e13 b73d
00000180: 1d12 c1bd 5636 d8bd 40ae 35bc a06e 06bd
00000190: 6169 1e3d e5aa f1bd 2581 09be c04f 50bc
000001a0: bcda 1b3d c1cd 84bc 2754 10bd c352 90bc
000001b0: ced7 0cbe 9690 6bbd 722f 63bb 6b0e 37be
000001c0: 86ab 9b3d a25c 373e a849 d53d aa08 0b3d
000001d0: 6752 6e3c a02b f63d 83b4 1f3e ba45 903b
000001e0: 5abb e63d cbf2 0abd 5dfe d9bd 7e08 313d
000001f0: e1aa 723c 54e3 293e 6163 3e3e 2af1 0b3d
00000200: 550d 003e 2eb5 973d 3db9 1e3e 499e a439
00000210: a806 84bd 8af2 15be eff9 24be 2f61 e0bd
00000220: 62ca 9c3d f16a bdbb 3fef 72bd 7d11 3f3e
00000230: 7dd3 2e3d 1de8 aabd d118 983c 22b7 adbd
00000240: 9222 993d 81eb 27bd 55a5 15be a42b b1bd
00000250: a11c 493d 422d 2ebd dff6 dc3b c45d 28be
00000260: b879 54be f5f7 dbbd ae04 17bd 5941 44bd
00000270: ead1 e1bd 1d8c 98bd 6b02 b13d 745c 03bd
00000280: 5b40 9fbd 26c7 a1bd 82a1 a5bd 4343 60be
00000290: 4594 0ebe 2b9e 15bd 0212 25bc 0f87 45bd
000002a0: eda7 34bd 8996 a7bd ad09 46bd be98 9f3c
000002b0: ceca e8bd e5b2 bbbd c5bb a2bd ddd4 683d
000002c0: 5f20 96bd 4d36 8a3c 8f9b 7d3d 431c dbbd
000002d0: 0cd9 e23d cdd7 33be f0b1 bdbd 4782 5dbd
000002e0: e665 cd3c cf16 df3d 7544 0e3e 61d5 e0bc
000002f0: bd04 373d f64e b03c 0d82 543c f11b 013b
00000300: 4e0f 1bbc 8959 983b d71d 71bb 98ff 3a3b
00000310: 948b aabd 4af3 0d3e 905a 583e 5a86 093d
00000320: 6777 133e ca60 9ebd 1938 43be 0a68 6d3c
00000330: 2e7c 993e 8cb6 6c3d 435c 42bd fe6f 743e
00000340: 74f1 4f3e fb76 05be 4a5a 5f3e 03d8 843e
00000350: 4032 9f3d d794 bdbd 7fad 69be 1c9a 043e
00000360: 4201 4cbe 6ac9 493e a34d 1b3d 2d36 b13d
00000370: a0cc d03b 7dc8 303d 762b 31bd 32bb fdbc
00000380: 742b 913d 9c6a 8d3b e58b 17bd 5494 663d
00000390: b952 2a3d 5230 83bc 8cc8 00bd 6384 b7bc
000003a0: a200 723e 9fc4 32bd f96f 4dbd 3e2e 873e
000003b0: 23e2 05be 9590 2fbc a07f 213d 285c 22bd
000003c0: cd95 5cbd a856 62bc a905 dbbc 54b4 debd
000003d0: 3e81 2dbc df88 8b3c 0e07 a13c 0b2d e9bd
000003e0: cb61 adbc 5ba2 1dbe 7d7c 10be c43e 13be
000003f0: 5bc3 cfbc 1537 11bd b8d6 13bd b0db 953d
-0.042515106 0.0021114305 -0.0122392895 0.023986377 -0.009761716 -0.044049595 0.060166325 0.035709128
0.081701 -0.03307602 0.037862364 0.031393535 0.0063816067 0.034539662 0.060898535 0.053894263
-0.06927875 0.1458684 -0.011840489 0.042569026 -0.11166466 -0.08297262 -0.08912015 0.04449842
0.022212502 -0.06078293 -0.09894213 -0.11486522 -0.028716082 -0.030233677 -0.07710379 0.061996076
-0.15925469 0.07222422 -0.0032202236 -0.13616651 0.05681167 -0.040848777 -0.039161537 0.04930341
-0.14976108 0.13819978 0.10617899 0.08679843 -0.16907202 -0.025854236 0.032349616 -0.13856968
0.049635675 -0.16908309 -0.024121268 -0.043603957 -0.016177602 0.08792122 -0.00092058047 -0.1120367
-0.031132735 -0.16286664 0.061875526 -0.0032474794 -0.10407322 0.14554872 0.057082895 -0.09202078
-0.0046300897 0.02121119 -0.016204337 0.08892433 -0.04247887 0.009151713 0.06013673 0.0035351324
-0.08202697 -0.087561235 -0.099886715 -0.072063275 -0.00030611616 -0.057157308 -0.016972128 -0.06505823
0.016673364 -0.02460187 -0.0136522455 -0.08784014 -0.028198693 -0.00891578 0.020415768 -0.0031592746
-0.027613332 -0.07507438 -0.009239812 -0.09760406 0.07730224 -0.0016323101 -0.0925009 0.08939241
-0.09427283 -0.10557239 -0.011088908 -0.032820344 0.038674716 -0.11800174 -0.13428171 -0.012714326
0.0380504 -0.016211392 -0.035236504 -0.017617589 -0.13754198 -0.057510935 -0.003466573 -0.17876594
0.07601075 0.1790643 0.104144394 0.03394381 0.014546013 0.120200396 0.15596204 0.0044028433
0.11266203 -0.03392295 -0.10644219 0.04322099 0.0148112485 0.16590625 0.18592598 0.03416554
0.12505086 0.07407604 0.1550035 0.0003139845 -0.06446582 -0.14643303 -0.16110967 -0.10956036
0.07655789 -0.0057805707 -0.059310194 0.18659015 0.04268216 -0.08345053 0.01856652 -0.084821954
0.07477297 -0.04099608 -0.1461385 -0.08650902 0.04909957 -0.04252363 0.0067432965 -0.16442019
-0.20749557 -0.107406534 -0.036869697 -0.047913883 -0.11026366 -0.074485995 0.08643039 -0.032070592
-0.07775947 -0.07899313 -0.08087446 -0.21900658 -0.13923748 -0.036527794 -0.010075094 -0.048224505
-0.04410546 -0.08183009 -0.04834907 0.019482013 -0.11366807 -0.09164981 -0.079459704 0.056843627
-0.07330393 0.016871596 0.06191593 -0.1069875 0.11076555 -0.1756279 -0.092624545 -0.05407932
0.025073003 0.10893022 0.13893302 -0.027445497 0.044682253 0.021522027 0.01297046 0.0019700492
-0.009464098 0.0046493453 -0.0036791468 0.0028533693 -0.08327404 0.13862339 0.21128297 0.033575393
0.14401017 -0.07733305 -0.19064368 0.014490137 0.29977554 0.057791278 -0.04745127 0.23870847
0.20306951 -0.13033669 0.21811786 0.25946054 0.07773256 -0.092569046 -0.2282009 0.12949413
-0.19922355 0.1970574 0.037915837 0.08652911 0.0063720495 0.04315995 -0.04325434 -0.03097305
0.07088366 0.0043156873 -0.03699865 0.0562938 0.041582797 -0.016014252 -0.031441256 -0.022401994
0.23633054 -0.043644544 -0.050155614 0.26402467 -0.13074546 -0.010715623 0.039428353 -0.03963867
-0.0538538 -0.013814606 -0.026736097 -0.108742386 -0.010589896 0.017033039 0.019656684 -0.113855444
-0.021164795 -0.15393965 -0.14109989 -0.14379412 -0.025361707 -0.03545292 -0.036093444 0.07317293

network_body.linear_encoder.seq_layers.0.bias f4 [4]
00000000: d0db aa3e a007 a83e 48ea 6f3e d8e9 c93e
0.3337083 0.32818317 0.23429215 0.3943622

network_body.linear_encoder.seq_layers.0.weight f4 [4, 1200]
00000000: e519 aebd 080d 2bbd 90fe 2f3b 1d5c aa3c
00000010: 0828 7e3b 7674 3b3c 793f 29bc 7b87 4fbc
00000020: 73f7 ba3b 3ca8 2c3d 3a75 9b3e 7d77 85bc
00000030: 61ef 953e 851a ec3c aad3 af3c fed8 24bd
00000040: 2feb 183d 4195 4b3c 0cf2 e13c d405 25be
00000050: 653a 653c 7805 123e 57b9 f13b d815 b1bc
00000060: 4058 003d 5a10 fbbc 3997 7e3c e2a3 b4bd
00000070: a816 3fbe 6b34 0b3e ccb4 64bd cac5 d1bd
00000080: d03c 93bd 5b59 5dbe 2843 aebd 48b4 11bc
00000090: 95c1 503c 84f6 43be 9e7b a4bc be7d 4dbe
000000a0: 2c6b 99be 5e21 12be 857a 71be 403c 0ebe
000000b0: 3be1 3c3d d0f6 94bd bbff 213d 69d0 a73c
000000c0: c5d1 1d3d c5c6 edbd 0842 1abc 6742 f2bc
000000d0: 0a8c eabc 3013 49bd 66e4 d4bd 4e2a fb3d
000000e0: 3672 c4bd 8d3f d6bc 2726 81bd 339f 21be
000000f0: b29c 87bc c595 bb3d b13c bf3d bb05 3d3b
00000100: 7934 183c 44fe 0abe 2b6c f1bc 71fa a1bd
00000110: 3d81 c43d e5f1 8abd fc27 663c e269 52bd
00000120: 2490 5a3e e6c7 b23c 4132 a9bd 50b9 da3c
00000130: 04c2 4bbe 6db4 b4bd 0c37 8cbd f236 a5bd
00000140: 3110 81bd 56c0 f93c eaf3 22be ddb2 97be
00000150: 33d8 d3bc 958c 8b3d 50da 31bb ad15 3bbe
00000160: c101 e2bc e42c a8bd 2d17 c9bd d54b a6bd
00000170: bac4 033e 7d7a c0bd 0646 75bd 94ae 12be
00000180: 6650 fdbd 09a5 f1bc f59d 9fbd cfc1 1bbe
00000190: 4b8d 3d3d 3176 083d 7166 59be 50f0 c9bd
000001a0: b0fb a43e 0259 0dbe b4d6 96be 215d 253d
000001b0: 347c 2fbe 9dc6 7dbe fe69 95be 7cf9 0e3e
000001c0: c6e3 abbd 52c7 d6bd b5c8 71be 0c53 01be
000001d0: 024a 723e 1019 f4bd b744 a1be 6448 48be
000001e0: 05c8 143d 4314 3fbd c5f3 d33b 8ff0 02be
000001f0: bf4a 373d 7f64 bdbc 6336 debc 9e64 1bbd
00000200: d232 7538 ca1a 863e a503 58bd 78bf 18bc
00000210: b92d a0bc fd5f 193e 9d29 bdbe c06f a0bd
00000220: ac11 c93c b03d 22be 9988 9a3c 3002 f53d
00000230: 9f04 84bd 4cbf 3ebe 8c97 edbd 06b4 bcbb
00000240: 16a8 32be 1edd 19be e5c7 12be 71b6 7c3d
00000250: 0810 27be 9b2e f8bd 6553 bbbd e4e7 2d3d
00000260: f01d adbd 70d9 c3bd c4bf 90be 87b2 1ebd
00000270: e369 9fbd e864 273a 2975 133d d5b3 43be
00000280: a815 f0bc c1a5 bcbd 3971 06be 5727 25be
00000290: a390 993c 2558 6b38 1281 3bbc 85e2 4cbd
000002a0: 6d5d 20bd d9c2 913c ad89 c3bd 41d7 06bd
000002b0: 2771 8bbd 7f8e 8d3d 074c 90bd 8418 05be
000002c0: 42a5 63bc 53e9 26bd fdd2 9d3d 73ac 3ebd
000002d0: 5c9a 303e 4f1a fb3c 1812 913c 192e 25bd
000002e0: a6eb 25be a5b8 88bd abb2 373d 7d08 d1bd
000002f0: e012 c03d 8028 42bd c6dc 02bd d88d e4bd
00000300: d066 0ebd abb6 d8bd 0ae5 d53d e6ab 81bd
00000310: be1f 963d 49cc ba3d 804a 9fbb 981a c0bd
00000320: 5e3d d0bb 7078 043e 6d87 f2bd 5b64 e3bd
00000330: 5c46 003e 191f 8ebd 89fa ddbb 2efb cbbd
00000340: 48a6 ea3d 4aec 13be 9a0e 1e3d dee9 01be
00000350: bc83 50bd 0466 e0bc 29c5 8fbd 8948 2d3e
00000360: 8842 a43e 021b 173b 8e7b 5dbd ee1e e3ba
00000370: c14a 35bd 5809 a7be f673 a53b da4a 933e
00000380: c78f 29be 8063 543d 5ba3 e1bd 13d7 91be
00000390: 1c88 c9bd 193a 6cbe b17f 003d 4d74 6bbe
000003a0: 087f 893e d744 d6bd 0379 0bbe f123 863e
000003b0: 1375 6ebd 83a3 74be 93df a4bd a65b 87be
000003c0: 0441 313d ffd4 30bd 2092 52bc 1581 70be
000003d0: d4ea ad3d 957c 39bc 6b01 3dbe a924 1fbe
000003e0: 7b6f 833d 2ae0 39be 1d50 aebd 1e82 f4bd
000003f0: 9e80 d13c 6292 31be 0a53 94bd 749b 48be
-0.08501033 -0.041760474 0.0026854612 0.020795876 0.0038781185 0.011441341 -0.0103300745 -0.012666578
0.005705768 0.04215263 0.30362874 -0.016292328 0.29284194 0.02882124 0.021463234 -0.040246002
0.037333664 0.012425722 0.027581237 -0.16115505 0.013990973 0.14259899 0.0073768306 -0.021616861
0.03133416 -0.030647445 0.015538984 -0.08820321 -0.18660986 0.13594215 -0.055836484 -0.102428034
-0.071893334 -0.21616118 -0.08508903 -0.00889308 0.012741466 -0.19137007 -0.020078477 -0.20067498
-0.29964578 -0.14270541 -0.23581894 -0.13890171 0.046113234 -0.07273638 0.039550524 0.02048512
0.03853013 -0.11610178 -0.009415157 -0.029572679 -0.028631229 -0.049090564 -0.10395126 0.12263928
-0.095920965 -0.02615335 -0.06306105 -0.15783386 -0.01655421 0.09159426 0.09337748 0.0028842527
0.009289854 -0.13573557 -0.029470524 -0.07909096 0.09594963 -0.06784419 0.014047619 -0.05137051
0.21344048 0.021823835 -0.08261538 0.026699692 -0.1989823 -0.08823476 -0.06846437 -0.080671206
-0.063019164 0.03048722 -0.15913358 -0.2962865 -0.025859928 0.06813923 -0.002713818 -0.18269987
-0.027588727 -0.08211687 -0.098188736 -0.081199326 0.12868014 -0.09398363 -0.059881233 -0.14324409
-0.123688504 -0.02949764 -0.077938 -0.15210651 0.046277326 0.03331584 -0.21230485 -0.09860289
0.32223272 -0.13803485 -0.2946068 0.040372018 -0.17137223 -0.24782796 -0.29182428 0.13962358
-0.08393054 -0.10487236 -0.2361172 -0.12629336 0.23661044 -0.11918843 -0.31497738 -0.19558865
0.036323566 -0.046650182 0.0064682686 -0.12787078 0.044749018 -0.02311921 -0.027125543 -0.037937753
5.8459882e-05 0.26192313 -0.05273785 -0.009322993 -0.019553052 0.14978023 -0.3694581 -0.078338146
0.02454456 -0.15843844 0.018863963 0.11963308 -0.06446194 -0.18627661 -0.11601171 -0.005758765
-0.17446932 -0.15025756 -0.14334066 0.061697427 -0.16314709 -0.12118264 -0.091467656 0.042457476
-0.08452976 -0.09562957 -0.28271306 -0.038744476 -0.07783868 0.00063855806 0.036000405 -0.19111569
-0.029307202 -0.092113025 -0.13129129 -0.16128288 0.018745726 5.6110457e-05 -0.011444347 -0.050020713
-0.039151598 0.017793106 -0.09547744 -0.032920126 -0.068086915 0.069119446 -0.07045751 -0.12997633
-0.013894381 -0.04074986 0.077062584 -0.04655118 0.17246383 0.030652193 0.017708823 -0.040327165
-0.16203174 -0.06675843 0.044848125 -0.10206697 0.093786 -0.047401905 -0.031948827 -0.11159867
-0.03476602 -0.10581716 0.10444076 -0.06331615 0.07330273 0.091209956 -0.004861176 -0.09380072
-0.006354972 0.12936568 -0.11842237 -0.11103126 0.1252684 -0.06939525 -0.006774251 -0.09960018
0.11457497 -0.14445606 0.038588144 -0.1268687 -0.05090688 -0.027392395 -0.07020027 0.16922201
0.3208201 0.002305687 -0.05407291 -0.0017327943 -0.044260744 -0.32624316 0.005049224 0.28768045
-0.16558753 0.051852703 -0.11017486 -0.284844 -0.09840414 -0.23069037 0.031371776 -0.22993584
0.2685473 -0.10462349 -0.13620381 0.26199296 -0.05821712 -0.238905 -0.08050456 -0.2643711
0.043274894 -0.04317188 -0.012852222 -0.23486741 0.084920555 -0.011321207 -0.18457572 -0.15541328
0.064177476 -0.18151918 -0.08511374 -0.119388804 0.025574025 -0.17340997 -0.07242401 -0.1959055

network_body.processors.0.normalizer.running_mean f4 [1200]
00000000: 0000 0000 d578 7c3f 0000 0000 0000 0000
00000010: 0000 0000 41a1 613c 0000 0000 0000 0000
00000020: 0000 0000 0000 0000 94fc 7f3f 0000 0000
00000030: c1f8 7f3f 0000 0000 0000 0000 9448 e837
00000040: 0000 0000 0000 0000 0000 0000 cc91 c138
00000050: 0000 0000 4cf3 7f3f 0000 0000 0bdb 9a37
00000060: 0bdb 1a37 0cdb 1a37 0000 0000 681f 6d3a
00000070: f6da 1a39 4cb9 7f3f 471d a23a fbb3 6a3a
00000080: 6246 1d3a 8748 6838 07c6 7a3f 6058 903c
00000090: 9958 d73a 9c48 e837 507c 7f3f f3da 9a37
000000a0: 867f 8738 17a4 7b39 9e7f 0739 16db 9a39
000000b0: 4fa5 993a 931c 533b fce8 ad3c 5d54 793f
000000c0: ac70 013f cb65 2c3b 753f cb3a 511d 223c
000000d0: d102 f83a 9af0 f43e 812f dc3a 0ed5 063f
000000e0: ace7 203c 3e42 e53b 2523 e83e c719 b93a
000000f0: df77 9f3c 4f41 773c 0591 973e e83d e63d
00000100: 1db0 873d a640 fb3e 0c9f 963c b605 0f3d
00000110: 22bb 4e3f d07a 873d c9d5 853c 820e 683d
00000120: 9963 f83c 6618 ac3b 318c 8d3a 1fcd 763a
00000130: ace8 7d3c 0d68 723f 05a4 7b3a 3b14 053a
00000140: f4ba bc39 230f 7f3f 68ae b63a 631f ed39
00000150: e4b1 9f39 ce92 3e3e f867 f73b 9143 033b
00000160: 2f7e e93a e55f 4d3f 580d b33a 172e 103f
00000170: a98a dd3e a078 b53a 947f 8739 318c 8d3a
00000180: 0edd 653a 6e36 ae38 925f a939 01db 9a37
00000190: a69e 7f3f 7436 2e39 b47f 8738 d3a1 b03a
000001a0: d5d4 0d3f 2bed d438 997c e33e 612d 1139
000001b0: ffda 9a37 8348 e837 f6da 1a37 a4f2 7f3f
000001c0: cb91 4138 b248 e837 f7da 1a38 af48 e838
000001d0: 3feb 7f3f 05db 9a37 977f 8738 04ed d438
000001e0: 0000 0000 ffda 9a37 349d 593c 5f3d 003a
000001f0: 0000 0000 b077 7c3f 0000 0000 ffda 1a37
00000200: 0000 0000 a4f8 7f3f 05db 1a37 0bdb 1a37
00000210: 522d 1139 2d81 7f3f 8f48 6838 02db 9a37
00000220: 0000 0000 85d0 df3a 49f6 7139 f468 7f3f
00000230: 0000 0000 5036 ae38 e002 f83a bc91 c138
00000240: 01a4 fb38 6036 ae38 6836 2e39 1f45 7f3f
00000250: bf10 1c3b d391 c138 e29a 5e3a 6379 843c
00000260: c0f0 bd3a ffb1 1f3b af48 e837 81a3 7a3f
00000270: 6572 323b 6db5 883a f9ea b13c a048 6838
00000280: d270 793f f3da 9a38 8bc7 423b 5b1f ed39
00000290: 3530 ab3b 2813 2b3d 093d 723f e95e 5a3b
000002a0: 95e9 673f 328c 0d3d 0f27 0e3b d4cf 493d
000002b0: 078f 273b 3e2b b53b 7f01 6b3c 7377 d33e
000002c0: ef33 333d 8c38 8a3b e098 043f a094 db3b
000002d0: 3aba bd3e 2952 0d3d b969 343c 47ce 3c3d
000002e0: b6bb 063f dfba 3c3c f5e0 883d c4f7 f43e
000002f0: aa9c 873e 2691 033e 056d c53c 6196 183d
00000300: bced cb3c 9eea 203f 457c 1e3c 8f74 7d3b
00000310: e3cb 413d 5942 923e f760 b63b 441b c63b
00000320: cb26 b63c 431b c63b 52a0 743f a133 943b
00000330: 57fa 513e 56bc 493c 7c45 2a3e 6d82 a13b
00000340: 69f5 db3c caa5 153f 6c3f 4b3c 0b4f 5a3f
00000350: 76ae b63a 0971 253c 2e14 853a b37c fa3d
00000360: aacb 083f cb20 8b3a b792 d73c 573f 4b39
00000370: 08d4 483a 0fe5 df3e 915f a939 cde8 0d3f
00000380: 35d7 123c ed6e 493b c888 2439 aac4 dd3e
00000390: b37f 8739 4595 df3e d091 4139 84bb fa3b
000003a0: e4cc 0d3f 2f95 aa3a 04db 9a37 88f0 0d3f
000003b0: 6cb5 883a 337e e93b 512d 9139 3ec8 df3e
000003c0: a485 5a3c b574 7c3f 0ddb 1a37 5f3d 003a
000003d0: 0000 0000 0000 0000 5f3d 003a d59a 5e3a
000003e0: 2730 7f3f ffda 9a38 710f 7e3a 9b3f 4b3a
000003f0: 3942 793d 21db 9a39 8184 6c3b 985f a939
0.0 0.98621875 0.0 0.0 0.0 0.013771356 0.0 0.0
0.0 0.0 0.9999478 0.0 0.99988943 0.0 0.0 2.7690352e-05
0.0 0.0 0.0 9.230114e-05 0.0 0.99980617 0.0 1.846023e-05
9.230115e-06 9.230116e-06 0.0 0.00090455124 0.00014768154 0.99892116 0.0012368344 0.0008953211
0.00059995626 5.5380657e-05 0.97958416 0.017620265 0.0016429602 2.7690367e-05 0.9979906 1.8460187e-05
6.461055e-05 0.00023998354 0.00012922144 0.000295364 0.001172224 0.0032213076 0.02122926 0.97394353
0.5056255 0.002630579 0.0015506583 0.009894685 0.0018921738 0.47839814 0.0016798825 0.52668846
0.00982086 0.006996422 0.45339313 0.0014122062 0.019466339 0.015091254 0.2960283 0.112422764
0.06625388 0.4907276 0.018386386 0.034917556 0.8075429 0.066152215 0.016337292 0.05665446
0.03032093 0.005251932 0.0010799227 0.00094147207 0.015497368 0.9469002 0.0009599331 0.0005076562
0.00035997445 0.9963247 0.0013937475 0.00045227548 0.00030459382 0.18610689 0.007550236 0.0020029286
0.0017814095 0.8022445 0.0013660593 0.5632033 0.43269852 0.0013845153 0.0002584426 0.0010799227
0.00087685965 8.307105e-05 0.00032305397 1.8460212e-05 0.99851453 0.00016614218 6.461088e-05 0.0013475962
0.5540288 0.00010153124 0.44430998 0.00013845183 1.8460209e-05 2.7690321e-05 9.230096e-06 0.99979615
4.6150566e-05 2.7690407e-05 3.6920388e-05 0.000110761604 0.9996833 1.846022e-05 6.461067e-05 0.00010153095
0.0 1.8460209e-05 0.013282109 0.00048919575 0.0 0.9862013 0.0 9.230104e-06
0.0 0.9998877 9.23011e-06 9.230115e-06 0.0001384516 0.9980648 5.5380686e-05 1.8460214e-05
0.0 0.0017075693 0.000230753 0.9976952 0.0 8.307083e-05 0.0018921755 9.230102e-05
0.00011999161 8.307095e-05 0.00016614201 0.99714845 0.0023813692 9.230119e-05 0.0008491707 0.016171163
0.0014491305 0.0024367569 2.7690401e-05 0.9790574 0.002722883 0.0010430046 0.021718489 5.5380748e-05
0.97437775 7.384075e-05 0.0029720988 0.00045227524 0.0052242526 0.041766316 0.9462438 0.003332073
0.9059079 0.03455753 0.0021690761 0.049270466 0.0025567429 0.0055288365 0.014343618 0.4130207
0.0437507 0.0042181667 0.5179577 0.006701067 0.37056142 0.034502182 0.011011534 0.04609516
0.52630174 0.011519163 0.06683532 0.4784528 0.26486713 0.12848338 0.024099836 0.037252788
0.024893634 0.62858 0.009673183 0.003867421 0.047313582 0.28566244 0.0055657583 0.006045731
0.022235295 0.0060457303 0.9555713 0.004522756 0.20505653 0.012312969 0.16628069 0.004928878
0.02685042 0.584561 0.012405258 0.8527686 0.0013937491 0.01009775 0.0010153109 0.12230816
0.53435767 0.0010614631 0.026315076 0.00019383185 0.00076609896 0.43729445 0.00032305394 0.5543335
0.008962442 0.0030736283 0.00015691214 0.43314105 0.0002584435 0.4366857 0.00018460234 0.007651748
0.55390763 0.0013014431 1.8460218e-05 0.55445147 0.0010430044 0.00712564 0.00027690319 0.4370746
0.0133375265 0.9861558 9.230117e-06 0.00048919575 0.0 0.0 0.00048919575 0.00084916997
0.9968285 7.3840834e-05 0.0009691632 0.00077533134 0.06085417 0.00029536433 0.003608972 0.00032305415
