Assets/Match3/Scripts/_/Match3Agent_20x20x6_S.onnx (onnx, 874104 bytes, 6 tensors)

action_model._discrete_distribution.branches.0.bias f4 [370]
00000000: 5cb3 8e3b da92 843c 0ed0 bcbb c57c 9c3c
00000010: 67a7 ae3c 72fd 3c3d 7159 e53c 3d72 723c
00000020: 6e1e 143c 3b54 bf3c dba0 bc3c c1ed 093d
00000030: 89e3 8b3d 7d53 513d 68fb 8a3c ec79 54bb
00000040: cdae 93bb cce8 653c 8b06 8a3c ce26 b63a
00000050: eb8d a6ba 3267 86bb 6a3b 053c 9d22 a83c
00000060: 8762 383d a790 6a3d 49e0 243c 5cbc f43c
00000070: 5630 803c 83ca 973c 2f76 2e3c 138c 0b3d
00000080: bb56 673d 5a4c fe3c 034b c03c 8829 083c
00000090: 26ad c6bb 4943 c7bb 4e30 603c 34a1 563c
000000a0: f110 03bc 3279 9a3c 9d5c 813d 0691 f63c
000000b0: 0911 993c 3843 033d 4c5c 3a3c e1e9 573c
000000c0: 5f3f 3d3d b15a 083d 3377 033d c1be de3c
000000d0: 4fa8 5d3d b35c c53c f4d0 173c f6af 843c
000000e0: 411a e4bc e5dd 12bb 1802 b7bb 7f44 a3bb
000000f0: f969 233b f2a7 a43b 52ff a33c 0b4b 9b3c
00000100: 63a3 963c 68b2 e53a 4176 02bb 95c4 a63c
00000110: 4eea f2ba 96e5 b83b 69b7 4c3c 2abe 753a
00000120: ce48 083c 1125 cd3b e00a 49bc 2b40 933c
00000130: d379 ebbc af32 95bc e184 e1bb de0c 7bbb
00000140: 2f8f 34bc c099 a0bb 2ec9 15bb 165f 73bc
00000150: 1d3b 803b 5217 faba a3cc 743b 616c 913b
00000160: ae31 413b 85f5 24ba 542f 893b da8f 07bd
00000170: e008 88bb 352a e0bb 9002 67bc 0ead 00bd
00000180: 8e01 06bd 4a3e d0ba 8498 13bc 607b c5bb
00000190: 9791 e5bb 6e8d 62bb 6cb7 fdbb 0fba e63b
000001a0: d060 96bc ca41 66bc 8feb 51bc d2ab 84bc
000001b0: dcaa 8ebc 965d 1bbc 50fa 68bc 5c04 bfbc
000001c0: 3727 ddbc 6461 abbc c89a 3bbc 4e0d d2bc
000001d0: 7b83 15bc 0635 aabc 89e0 3dbc 3c97 e4bc
000001e0: c514 ccbc 350e fbbb 4bd3 28bc 9eb0 0eba
000001f0: 8805 a6bc 5a12 6ebc 8033 47bc 3635 a1bc
00000200: 6c81 653b df81 30bb 24fc 40bc d683 5fbc
00000210: 1fb4 9fbc 069c f4bc 068a d1bc 96dc b8bb
00000220: 8b32 b0bc a979 b1bc f3ff aabc 2ab4 a8bb
00000230: a715 32bc 1ef4 e5bc 2b4d 04bd b050 bdbb
00000240: fc58 16bb a33a 9dbc 2440 98bc 1f4a 68bc
00000250: 289a a7bc ae0a 20bc 44a2 fdbb 2482 9abc
00000260: 2cf7 f6bc 9317 87bc 201e 70bc 4a75 0ebc
00000270: 2ec0 5ebc 0f82 e1bc 5ff1 66bc 25c0 d2bc
00000280: 1632 9dbc 2f31 b4bc 3254 bdbc 0d28 38bb
00000290: 1b1b c5bc 953e afbc 6d01 bcbc 93a2 f83b
000002a0: 7d1e 0dbc fb41 61bc d327 5bbc 59fa e6bc
000002b0: 29ac 0bbd 4e2b 98bc 1cd7 f8bc 793a afbc
000002c0: 6bcf cebc e318 3ebc 626a 8fbc bd20 ffbb
000002d0: 304a e4bc a4ad b1bc c37a 2ebc 53a8 fabc
000002e0: 7177 81bc 7c75 34bc a655 8c3a c608 edbc
000002f0: 4902 0dbd 67a4 4bbc a4b3 c4bc ca43 363b
00000300: 337c 70bb 5857 ba3b bda8 093d 4971 413d
00000310: 2d73 6a3c f1de 203d 8935 0d3c e484 573d
00000320: 7f28 a73c 62a3 9a3d c79c 6c3c 38b0 963c
00000330: 0074 893c 992e 5a3c 9b96 3bba 2b05 b43b
00000340: 5c8d 0fbd cab9 b0bc 02fc a1bb f115 4ebc
00000350: 6ff0 103c afc9 443c 4465 8c3b 0978 0d3d
00000360: 29f4 beb9 3df4 6d3d 66fd e53c b178 353c
00000370: 313b 4f3c ae07 d13c 2d53 6e3c 0ae4 423d
00000380: a324 3c3d 03c8 243d 0a1b 633b 1594 023d
00000390: d7ef 8abc 9ee8 9dbb 3b3f aabb 3a9f cdbb
000003a0: 1ea5 0c3a be6b 93bb 449b 803c 2c96 0a3c
000003b0: 4047 593c e538 b4ba 3a73 763c f709 493c
000003c0: 316f 993a 6c63 0f3c 499f 173b dcde 2e3c
000003d0: 7986 a03c 8285 ce3c 8c92 4e3c c318 ccbc
000003e0: 3995 25bc a143 c0bc 9d01 5338 8265 d6bb
000003f0: 5742 97bc 3593 9ebb f11a d4bb 4218 0dbb
0.0043548774 0.016183306 -0.0057621067 0.019102463 0.021320058 0.04614014 0.02799675 0.014797744
0.009040458 0.023355594 0.02302592 0.033674005 0.06830508 0.05110501 0.016965583 -0.0032421304
-0.004506922 0.014032554 0.016848823 0.0013897063 -0.001270709 -0.0041016573 0.008131841 0.020524317
0.045015838 0.057266857 0.010063239 0.029874973 0.015648048 0.018529182 0.010648294 0.034069132
0.056479197 0.031042267 0.023473268 0.008310683 -0.0060631214 -0.006081019 0.013683392 0.013099957
-0.007999645 0.018856619 0.06316493 0.03009845 0.01868488 0.032046527 0.011374544 0.01317832
0.046203014 0.033289615 0.0320961 0.027190568 0.05411559 0.024092054 0.009266127 0.016197186
-0.02784455 -0.0022410091 -0.0055849664 -0.0049825306 0.002493499 0.0050249035 0.020019207 0.018956682
0.018388456 0.0017524483 -0.001990691 0.02035741 -0.0018532963 0.005642603 0.0124949 0.0009374345
0.008318139 0.006260522 -0.012270659 0.017974934 -0.028744614 -0.018212644 -0.0068822955 -0.003830723
-0.011020466 -0.004901141 -0.0022855508 -0.014854213 0.003913297 -0.0019080436 0.0037353418 0.0044379686
0.0029479074 -0.0006292689 0.00418655 -0.033096172 -0.0041514486 -0.006840969 -0.014099732 -0.031415038
-0.032716326 -0.0015887704 -0.0090085305 -0.0060266703 -0.007005881 -0.0034569162 -0.007742813 0.007041223
-0.01835671 -0.014053771 -0.012812509 -0.016195212 -0.017415456 -0.009482762 -0.014219835 -0.023317508
-0.026996238 -0.020920463 -0.011450477 -0.02564111 -0.009125586 -0.020777237 -0.011589178 -0.027904145
-0.024912247 -0.0076616057 -0.010304282 -0.0005443188 -0.02026631 -0.014530743 -0.012158275 -0.019678693
0.0035019768 -0.0026932878 -0.011778865 -0.013642272 -0.019495068 -0.029859554 -0.02557851 -0.0056415303
-0.021508476 -0.021664457 -0.020874 -0.0051484304 -0.01086942 -0.028070506 -0.032300156 -0.005777441
-0.0022941222 -0.019193 -0.018585272 -0.014177828 -0.02045925 -0.009768171 -0.007740291 -0.018860884
-0.030147158 -0.016490733 -0.01465562 -0.008694956 -0.013595624 -0.027527837 -0.014095633 -0.025726387
-0.019188922 -0.021996109 -0.023111437 -0.0028100044 -0.024060776 -0.021392146 -0.022949899 0.0075877397
-0.008613226 -0.013748641 -0.013376194 -0.028195547 -0.03409973 -0.018575337 -0.03037601 -0.021390187
-0.025245389 -0.011602613 -0.017506782 -0.007785885 -0.027867407 -0.021689244 -0.010649386 -0.030597841
-0.015804024 -0.011014339 0.0010706678 -0.028934848 -0.034426007 -0.012429333 -0.02401144 0.0027811402
-0.0036695122 0.0056866817 0.033608187 0.047227178 0.014309687 0.039275113 0.008618721 0.05261697
0.020405052 0.07550694 0.0144416755 0.018394575 0.016778946 0.013316774 -0.0007155926 0.00549378
-0.03504692 -0.021572966 -0.0049433718 -0.012578473 0.008846386 0.012010976 0.0042845327 0.034538303
-0.00036421538 0.058094252 0.028074931 0.011076138 0.01264839 0.025516357 0.014546198 0.047580756
0.045933377 0.04022981 0.0034653568 0.031879503 -0.016960068 -0.00481899 -0.005195526 -0.006275085
0.00053651806 -0.004498928 0.015699036 0.008458655 0.013261616 -0.0013749866 0.015042121 0.012270442
0.0011706111 0.008751731 0.0023135713 0.010673251 0.019595372 0.025210146 0.012608182 -0.024914151
-0.010106378 -0.023469748 5.0307823e-05 -0.0065428624 -0.01846425 -0.004839326 -0.006472938 -0.0021529351

action_model._discrete_distribution.branches.0.weight f4 [370, 128]
00000000: 3e39 59bb 7770 c73c 9cf9 adbc d38e 55bb
00000010: 3980 2bbc 536c f8bb 7a7a 703d 4a0f c93c
00000020: d4c4 ae3b d93e 08bc c9dd e23b 74fa 923c
00000030: da5e 97bc e1c9 563c b753 0a3d f00b 373d
00000040: 7ae2 81bc 97be ed3c 0cad a03c aa01 4f3c
00000050: b302 d3bc 5e41 283d 3ecf 9a3c 7383 ae3b
00000060: c20c 31bb 784d 103c a0a5 f33c 9e64 a03c
00000070: 690a 173c 36c4 26ba 7e47 713c 6f28 8d3c
00000080: 53a7 8fbb 7a56 5a3d e569 cebb 8326 06bb
00000090: f035 3237 ae8a 213d b42d 353a 8fec 653c
000000a0: a47e 193d b688 b63c e8df 393d cdc8 293d
000000b0: e41e 3c3c d1b1 4dbc b87f ff3c ac44 dcbc
000000c0: 3789 54bb 0697 773d 6a97 8b3c f90a b43b
000000d0: bae9 e33c 2085 f6b9 23df e4bc 6751 c13c
000000e0: 9f09 f6bc 2425 903d d109 093d ab56 d5bb
000000f0: 2c6e e4bc fb47 8bbc dd6c 393c d468 02bc
00000100: 0268 0ebc 5c7a 8d3c dbf4 093d d75f fb39
00000110: dfd6 023c e18c 7dbb 2c4d 90bd 81e1 1b3b
00000120: bf30 d63c 0407 76bc c1a2 0abd 72ad e2bc
00000130: 70fb fa3c a67d 043c 340f d83b 2fbe 6bbb
00000140: 3237 5fbc 1b1e 903b 4c7e a33c bdaf 8dbc
00000150: e61c 073d e7f3 283b 81b1 d0bc 9111 2fbd
00000160: 24ab 7bbc 18ed 003c 947a 49ba ff1e 34bd
00000170: 03e8 52bb 4906 38bb b65e 853c 9c4f 083d
00000180: bcc0 cd3c e1bf 5e3c 74c7 483d 7d56 e6bb
00000190: 4d99 f7bb 393f 87bb b254 1d3d 9023 b23b
000001a0: 9af7 42bc 16e2 e4ba 1aef fa3c 8b1b d93b
000001b0: d894 493c a422 4a3d feba c4bc 93fb c93c
000001c0: 4081 be3c f621 fb3c cff3 f13c ed2c 1a3c
000001d0: 1c9b c93c 965b e23c a50c 043c c072 da3a
000001e0: 241b a4bc abf7 3f3c 14f8 36bd 78b5 4c3d
000001f0: ceae f93c a969 24bc 6a4b 883c 784e 133d
00000200: 7994 ba3d c23a b73d 94de d339 7e5c 30bd
00000210: 7cef eabc c3fa 8a3b e071 8a3d 9f0b d03c
00000220: 8c1f 2c3c 8359 3d3c 6e9e d33c 606e 143c
00000230: 4b73 3fbd 4fec b33c 65f7 fc3c 7e79 4039
00000240: 5861 cabb b68d 063c aac9 b43c c1fd 9d3c
00000250: 8814 b23d e707 e53d 47d0 6ebb 4644 1bbc
00000260: a81c 5abc a93b 2d3d 09a5 ca3a 7610 e8bb
00000270: 584c b93c fccc 193c c592 a63c ffab a33d
00000280: 61de e3bc 6d92 3e3c 3bab bc38 7865 a43c
00000290: 35d0 14bd acee 0c3a 6467 a83c 3341 483c
000002a0: fff9 1d3d 7d08 6bbd 0be9 203d b529 06bb
000002b0: b8ff 1cbd 05fc d4ba 006c 94ba 600d 4c3d
000002c0: 06da 55bc 3e00 823d 8d33 4dbd deb8 12bc
000002d0: 2dae 993c bbe8 15bc 6585 7d3c e859 6abc
000002e0: 3b8a e1bc f0b5 7d3d 029e c73d b9b2 563d
000002f0: 202c d83b ba22 eebb 89cd 0f3c e8f6 2b3d
00000300: ab06 413d adb5 8d3b 0e72 ccbc 1d04 9b3c
00000310: 14e4 c13b 275b 293b df9e 553c 39e8 703d
00000320: 0366 a8bc 9e65 fc3c 8cd2 7bbc 73ad d63a
00000330: 3bc5 cebb 7e0d d8bb 33f3 933d f2f5 e23b
00000340: 0be9 693b 16dc afba 7ace e13c b34f f63c
00000350: eb86 91bc 131b a4bc e560 833d f9d1 903d
00000360: a934 7dbc c87d 63bc 9af8 0b3d dede e43c
00000370: ac52 40bd 70c1 b63c 9c6c ea3c ebde 283d
00000380: 5bf6 ce3c 878e 853d 79ab 383c cafe 8338
00000390: 348a 723d a142 1abd 1245 523d b9ed 2d3d
000003a0: 25df 1a3d 8b81 a0bc f72e 76bd baa6 013d
000003b0: edaa c23a e0eb 393d d1e3 613d 140f d0bb
000003c0: ef63 753b f2d7 943d 466c e93b f2f4 09bc
000003d0: 0917 f3bc ae4e 413d eb26 3d3b 915d 183c
000003e0: ca19 403d 245d 243d 2b72 a33d a6b3 ebbc
000003f0: ac13 543c 2829 5a3d b12a e03d 6a89 cf3b
-0.0033145691 0.02434562 -0.021237187 -0.003258635 -0.010467582 -0.0075812726 0.058710553 0.024543423
0.0053335223 -0.008315765 0.0069234115 0.017941691 -0.018477846 0.013109655 0.033771243 0.04468912
-0.015855063 0.029021544 0.019613765 0.012634674 -0.025758123 0.041077964 0.018897649 0.0053257286
-0.002701566 0.0088075325 0.029742062 0.019579228 0.009218791 -0.0006361635 0.014726518 0.017231194
-0.0043839603 0.053305127 -0.0062992447 -0.0020469732 1.0622185e-05 0.039438896 0.00069114123 0.014033451
0.03747429 0.022281986 0.04537955 0.041451264 0.011481974 -0.012554602 0.03118883 -0.026888214
-0.003243042 0.06044676 0.017039973 0.005494472 0.02782141 -0.00047019962 -0.027938431 0.023598386
-0.030033885 0.07038334 0.033456627 -0.006510576 -0.027884565 -0.017002096 0.011317459 -0.007959563
-0.00869179 0.01727026 0.033680778 0.00047945857 0.0079858 -0.0038688707 -0.07045969 0.0023785534
0.02614629 -0.015016321 -0.03384662 -0.027670596 0.030637473 0.008086598 0.006593609 -0.0035971513
-0.013623999 0.00439812 0.019957684 -0.017295713 0.032986544 0.0025780143 -0.025475265 -0.042741362
-0.015360627 0.007869028 -0.0007685807 -0.043974873 -0.0032181747 -0.0028079918 0.016280513 0.033279046
0.025116317 0.013595552 0.04901834 -0.007029353 -0.0075561167 -0.00412741 0.03841085 0.0054363683
-0.011899853 -0.0017462398 0.03063159 0.006625598 0.0123035535 0.049349442 -0.024014946 0.024656093
0.02325499 0.030655842 0.029535202 0.009410125 0.024610095 0.027631562 0.008059655 0.0016666278
-0.020032473 0.0117167635 -0.04467018 0.04997775 0.030478861 -0.010034957 0.016637523 0.035963506
0.0911035 0.08946754 0.0004041089 -0.043056957 -0.028678648 0.004241319 0.06760001 0.025396166
0.010505568 0.011556986 0.025832381 0.009059519 -0.04674081 0.021963267 0.030879686 0.00018355806
-0.006176155 0.008212497 0.022068817 0.019286038 0.08695322 0.11183148 -0.003644006 -0.009476727
-0.013312496 0.042293224 0.0015460561 -0.0070820404 0.022619411 0.009387251 0.020333657 0.0799179
-0.027816 0.01163159 8.996433e-05 0.020067915 -0.036331374 0.0005376141 0.020557113 0.012222576
0.038568493 -0.057381142 0.039284747 -0.0020471637 -0.03832981 -0.0016249424 -0.001132369 0.049817443
-0.013052469 0.063477024 -0.05009799 -0.008955209 0.018759811 -0.009149726 0.015473698 -0.014303662
-0.027531734 0.061941087 0.097469345 0.052416537 0.006597057 -0.0072673233 0.008777031 0.041983515
0.0471255 0.004324636 -0.02495673 0.01892286 0.0059170816 0.0025841685 0.013038366 0.058815215
-0.020556455 0.030810174 -0.0153700225 0.0016378596 -0.006310133 -0.0065934053 0.07224121 0.0069262916
0.0035691883 -0.0013417031 0.027564276 0.0300673 -0.01776453 -0.020032441 0.064149655 0.07071299
-0.01545445 -0.013884969 0.03417263 0.027938303 -0.046953842 0.022309035 0.028616242 0.041228216
0.025263956 0.065213256 0.011271351 6.294025e-05 0.059213832 -0.0376612 0.0513354 0.042463038
0.037810463 -0.01959302 -0.060103383 0.031653143 0.0014851965 0.045390964 0.055148903 -0.0063494537
0.0037443598 0.07267751 0.007123503 -0.008420216 -0.02967407 0.047194175 0.0028862308 0.009299652
0.046899594 0.04012789 0.0798076 -0.028772186 0.012944143 0.053261906 0.10945643 0.0063335197

network_body.linear_encoder.seq_layers.0.bias f4 [128]
00000000: e00a 813c 36a2 553c fb00 a53b 8c44 7f3c
00000010: d1af 6e3c b7fb 843c 8be0 a13c 117a 423c
00000020: b760 793c 9da5 923c 18a9 633c 1b1f 8e3c
00000030: 571b 8a3c d2cd 963c 45ed 533c fe3b ab3c
00000040: 22e8 983c 3a39 153c 6e04 553c 6f66 7a3c
00000050: 86df a23c f79b 973c a39d 463c b849 753c
00000060: 0646 893c a1fd 873c 5b00 a93c e4d8 bc3c
00000070: eb2c 803c 9850 943c 0070 a13c 8c4e 7c3c
00000080: d8f2 9d3c 0d3c 6e3c 385a 963c 4531 443c
00000090: 10eb 733c eee3 b13c a97d 0f3c 0a50 bc3c
000000a0: 4eab 423c 18b0 c43c 7aa8 6b3c ecb1 b93c
000000b0: 39e6 ce3c 8961 153c 0f3d 773c 3a12 4f3c
000000c0: dd2f 573c 9865 933c 4422 943c 1ec6 6b3c
000000d0: 8b41 cd3c a8bc cb3c dc1b 803c f009 a53c
000000e0: 8a32 c23c 2a77 803c b55d 913c 8736 ac3c
000000f0: c386 bc3c 58a0 873c 9307 443c d42c 9c3c
00000100: ac0c ad3c e8b2 973c 3c3a 843c a9b9 aa3c
00000110: 84cc 6b3c 9bb8 8d3c b80f 893c 7c16 3b3c
00000120: 0398 c63c 5526 963c 1fee 993c ec2e 763c
00000130: c242 613c 4b79 853c 92f2 ba3c 1df3 653c
00000140: 9378 553c 84bd 603c 8924 553c 373d 523c
00000150: 5919 6a3c b3f7 383c 8046 553c 822c a83c
00000160: 761c 843c 239b 793c b229 8c3c 5153 793c
00000170: 3f92 853c b9a4 353c 6e82 a13c 5134 9c3c
00000180: 506f cc3c 7d8e aa3c 30fa 673c 0458 9b3c
00000190: 577d 933c 87dc 4c3c 4e14 103c 5b45 5a3c
000001a0: 6ace 2e3c d965 643c 4d3e 993c 3040 773c
000001b0: 3c1b 883c 7c72 9f3c ff66 173c 07f8 b73c
000001c0: 48c6 903c 3445 a13c 2842 653c 973a 9a3c
000001d0: a0fd 853c e247 3b3c 79e0 9a3c 9ad0 903c
000001e0: d4f4 b63c 877c 903c 7902 993c 11c4 883c
000001f0: 3624 963c 9a81 433c baff a13c b63a b03c
0.015752256 0.013039162 0.0050355173 0.015580308 0.014568285 0.016233308 0.01976039 0.011869923
0.0152208125 0.017901236 0.013895296 0.017348817 0.01685874 0.01840869 0.012934987 0.02090263
0.018665377 0.009107882 0.013001544 0.015283211 0.019881975 0.018506987 0.012122544 0.014971189
0.016757023 0.016600432 0.020630052 0.02305264 0.015646419 0.018104836 0.019706726 0.015399586
0.019280836 0.014540684 0.018353567 0.011974637 0.014887586 0.02171513 0.008757987 0.022987384
0.0118816625 0.02400975 0.01438343 0.022667848 0.025256263 0.0091174925 0.015090241 0.012638623
0.01313397 0.01799278 0.018082745 0.014390497 0.025055667 0.024870232 0.015638284 0.02014634
0.02370574 0.015681822 0.017744878 0.021022094 0.023013478 0.01655595 0.011964696 0.019064344
0.021124206 0.018517926 0.01614105 0.020840483 0.014392022 0.01729994 0.016731128 0.011418935
0.024242407 0.018328825 0.018790303 0.0150258355 0.013748826 0.016293189 0.022820745 0.0140350135
0.013029235 0.013717059 0.013009199 0.012831978 0.01428827 0.011289525 0.013017297 0.020529035
0.016126852 0.015234741 0.017109726 0.015217618 0.016305087 0.011086636 0.019715514 0.019067915
0.024955422 0.020819897 0.01415877 0.018962868 0.018004103 0.01250375 0.0087939035 0.0133222
0.01066933 0.013940298 0.018706465 0.015090987 0.016614549 0.01946377 0.009240865 0.022457136
0.017672673 0.019686319 0.013992824 0.018826766 0.01635629 0.011430712 0.018905865 0.017677594
0.02233354 0.017637504 0.018677937 0.016695054 0.018327814 0.011932755 0.01977526 0.02151237

network_body.linear_encoder.seq_layers.0.weight f4 [128, 1200]
00000000: 96d9 06bd 6b90 9d3c 3c8b afbd da0c dd3c
00000010: 3ca2 503c 3d35 f03c 71ee 753d b279 ae3d
00000020: 8e01 88bd ddcd ea3c e82a 003d 47ea 17bb
00000030: 71af c23b 35b1 843d 1a5c 0dbd 0a80 e83c
00000040: c1d0 0a3e aa8e 383d 3b00 3d3d d2a4 f43c
00000050: 7bff 7c3c b08d a73c 7d5c b0bd d348 b43d
00000060: 4f4b c4b9 684f 13bd f93e bebc 1977 203d
00000070: 9d8f 10bc fc88 a4bc 5e1c 0bbe 9674 a43d
00000080: 9f39 87bd 80da e23d 854b 11bd 3495 3fbc
00000090: 71ff a63d 799c 853d 7f9e 09bd 498f 43bd
000000a0: 9c1f 243b fb51 9c3d 52d0 173d 1994 1ebd
000000b0: 1682 74bc a6eb 2d3d 0523 a0bd 9ce1 fa3c
000000c0: 6f2d e13c 5524 a5bc 47df 713d ae2c 443d
000000d0: 527b c0bb f673 7cbd bd3d eebb ca0b 93bd
000000e0: 0aad 6fbc f8da 273d 3b8c 793d 4ba3 ecbc
000000f0: ac8a 0f3d e352 313d 8f60 2ebd c324 f8bd
00000100: 8e88 03bd 89aa 763d 499a 8fbd f7b8 2d3b
00000110: 3f63 603d 9bb4 5cbd a36a 2a3a ded5 bb3c
00000120: 7042 cdbc 0294 a43a e92d 8039 15c1 1bbd
00000130: b98c a7bb 279c df3c 13ce d53b 1bbf 66bd
00000140: 3c13 6b3c 189f 973d 7466 40bd 68ad bebc
00000150: ddb0 c13b f156 4c3d e068 abbd 6807 ecbc
00000160: 523a 363c 7b50 323d 8a4d 58bd 7cdf 8d3d
00000170: cf70 e1bc 1dc9 563d 055d b33c de65 89bc
00000180: 59a0 de3c 38f7 083d 77d2 9fbc a851 8a3d
00000190: 4170 963b e5fc d1bb 4dda d13d ac5c 923d
000001a0: a4fe 833d 47df 1f3c 2813 5abd 5334 9bbd
000001b0: 192c e9bd ae92 d5bc cc09 16bd deca 2f3d
000001c0: bc43 0f3e fe5d 103d fd35 9abd 9cbc a238
000001d0: e3cd 84bc ad65 683d c4ed c1bd 4876 ca3c
000001e0: 4547 dbbd bec2 b73c c8cc 79bd 9984 d03c
000001f0: c630 10bc b917 573d 435a d3bd eb87 013c
00000200: 6e5a aa3c 25f7 743d e614 153d 80d3 c9bd
00000210: 7aae 013c 5a9f 463d 2089 283c 1e26 86bc
00000220: d383 5dbd 4efc aa3d 149e cbbc 52b0 85bd
00000230: 7904 96bc b9d3 203e 08a2 03bd 5250 463d
00000240: 62ea c6bc 0d81 cbbc 73ce 963d 0ff3 30bc
00000250: afa0 d13c 6b3c b6bd 21fc 5f3c eedb 623d
00000260: 625e 753d 7001 1abd 35e8 3d3d cbf2 013d
00000270: 4942 633c 0b07 6b3d 3dba 88bc 067d b8bc
00000280: dbbd 533a 130f 6a3b f276 aa3c 0ee6 c63c
00000290: bc1b 06bd 005f 983c 5d91 3f3d dcc0 03bd
000002a0: de77 063d b53d 4a3d c7e8 8cbc 3a5c 4fbd
000002b0: b7d1 c9bc f5a9 95bd ae92 b03c bcc4 903b
000002c0: 0bc4 a0bc cbec 9b3b 3117 b1bc 1aa3 963c
000002d0: 259c 663d e893 433d 409c 8fbd d4cb 38bd
000002e0: d904 9b3d 545b a8bd 82e6 83bd 7fe8 d33d
000002f0: bb31 143d 2c4b 9ebb 2162 593d 7974 e7b9
00000300: 1b04 b63d d618 df3c 1b6a 80bc 5e4e 47bd
00000310: 1e00 823d a00b 66bb 5e56 08bd b536 b9bd
00000320: a64f be3d 62f0 953d 1ce8 36bd dcff 05bd
00000330: f212 843c 96da c7bd 62a9 023d f023 a1bb
00000340: 8843 24bd a1a1 0fbc 5884 11bd 3fad 483d
00000350: 85d1 92bd b4f8 9d3a 06f1 4abc 7061 803c
00000360: 0f76 d73c f794 723d 80d6 b13a 88bb 02bd
00000370: 096e 2b3d fb07 3bbd 697b 91bc e2b6 213d
00000380: 72ee 17bb cb8d 99bd 1411 a33c 9f90 97bd
00000390: 0391 8f3b 308b cabd 67f6 7ebc f760 9bbc
000003a0: 9662 2cbc 6f4b ab3d 6364 d43c 8cc4 2d3d
000003b0: fae2 7b3d fbfc 5a3d 7ad5 38bb 2651 f3bd
000003c0: 0654 0b3d 6b11 1e3d 18f3 873d 8c17 61bd
000003d0: 7717 353d 576c 683d b308 c63d 6af3 9ebd
000003e0: c7e5 443d c3e6 72bb ff9b 77bc 370f 313d
000003f0: 0f08 de3c 7c60 123d 5b88 ea3b f3b4 043e
-0.03292235 0.019233903 -0.08571479 0.026983667 0.012733992 0.029322261 0.06004185 0.08519305
-0.066409215 0.028662616 0.03129092 -0.0023180412 0.0059413244 0.06479112 -0.034511663 0.028381366
0.13556196 0.04505793 0.046142798 0.029863749 0.015441771 0.020453304 -0.08611391 0.088029526
-0.00037440142 -0.0359644 -0.023223387 0.03917608 -0.008823303 -0.02008485 -0.1358504 0.080300495
-0.06602787 0.11076832 -0.03547241 -0.011693288 0.0815419 0.065239854 -0.03359842 -0.04774407
0.0025043255 0.07632824 0.037063904 -0.038715456 -0.014923593 0.04246106 -0.078191794 0.030625157
0.027487485 -0.020158926 0.059050824 0.047894172 -0.005874076 -0.061634026 -0.0072705434 -0.07179983
-0.014628658 0.04098031 0.06092475 -0.028886458 0.035044357 0.043291938 -0.042572554 -0.12116387
-0.03211265 0.06022123 -0.070118494 0.0026507953 0.05478215 -0.053883176 0.00065008755 0.022929128
-0.025056094 0.0012556317 0.00024448268 -0.038025934 -0.005113211 0.027296139 0.00652481 -0.056334596
0.014347848 0.074033916 -0.046972707 -0.023276046 0.0059109763 0.0498876 -0.08369613 -0.028812125
0.011122303 0.043533783 -0.052808322 0.06927392 -0.027519612 0.05243789 0.021894941 -0.016772207
0.02717607 0.03343889 -0.019509537 0.06753856 0.0045910184 -0.006408321 0.10246716 0.07146582
0.06445053 0.009757823 -0.053240925 -0.075783394 -0.11385364 -0.026070919 -0.036630437 0.04291808
0.13990682 0.035245888 -0.07529829 7.759893e-05 -0.016211456 0.05673759 -0.09469178 0.024714604
-0.10706953 0.022431727 -0.06098631 0.025453852 -0.008800691 0.052512858 -0.103199504 0.0079059405
0.020795073 0.059806008 0.036396883 -0.098547935 0.007915134 0.048491813 0.010286599 -0.016375598
-0.054080795 0.083489046 -0.024855651 -0.06527771 -0.01831268 0.15705766 -0.032136947 0.048416443
-0.024281684 -0.02484181 0.07363596 -0.010800137 0.025589315 -0.088982426 0.013670952 0.055385523
0.059904464 -0.037599027 0.046364028 0.031725686 0.013870784 0.057379764 -0.016690368 -0.022520553
0.0008077302 0.0035714551 0.02080867 0.02427962 -0.032741293 0.018599987 0.04676949 -0.032166347
0.032829158 0.049375255 -0.01720084 -0.050625063 -0.024636133 -0.07307807 0.021554317 0.004417984
-0.01962473 0.0047584525 -0.021617504 0.01838832 0.056301255 0.047748476 -0.07012224 -0.04511626
0.07569284 -0.082205445 -0.0644045 0.103470795 0.03618024 -0.0048307385 0.0530721 -0.00044146532
0.08887502 0.027233522 -0.015675595 -0.04865872 0.063476786 -0.0035102144 -0.03328549 -0.09043638
0.092925355 0.0732124 -0.04465495 -0.03271471 0.016122315 -0.09758489 0.031899817 -0.004917614
-0.040103465 -0.008766563 -0.035526603 0.048993345 -0.07168869 0.0012052269 -0.012386566 0.015671462
0.026301412 0.059224095 0.0013567954 -0.031917125 0.041852985 -0.045661908 -0.017759042 0.03948105
-0.0023182896 -0.07497748 0.019905604 -0.07400631 0.0043813004 -0.09889829 -0.015561677 -0.018967135
-0.010521552 0.08363997 0.025926774 0.04242377 0.06149576 0.053463917 -0.0028203414 -0.11880712
0.034015678 0.03859083 0.06638163 -0.054954097 0.04421183 0.056743946 0.09669628 -0.07761271
0.048070695 -0.0037063814 -0.015112876 0.0432274 0.027103452 0.035736546 0.007157368 0.12959652

network_body.linear_encoder.seq_layers.2.bias f4 [128]
00000000: 9396 0c3c 069f 973b ed33 073a f405 d0bb
00000010: 01eb c13c ed5c 3c3c a6a3 ed3c 6b37 3b3c
00000020: bc74 923c ad5c b83c 5542 973c 33bb c03b
00000030: e869 983c 46f4 ec3c 9796 c63c 884b ac3c
00000040: f0b3 8f3c da20 f63c 4f63 cb3c 90ae e83c
00000050: 848c 823c 15e6 833c 6680 6a3c a9b5 4abb
00000060: 174f bf3b c9fe ff39 907d 813c a3f4 ab3b
00000070: e317 553c f247 353c dc4d 333c d3ed 4c3c
00000080: 14c7 ab3c 461d 403c 4e62 7f3c e5c2 703c
00000090: 9caa ae3c d653 1dbb 1dc3 fe3c 5f31 473c
000000a0: 788b 9a3b bcd5 8d3c 4db0 a7bc ef09 273c
000000b0: c2b0 893c b841 603c a1cf 143c e8f5 9b3c
000000c0: 94e8 93bb 7e6b 1c3d 2105 823c a9b6 a03c
000000d0: a6b1 90ba dfac 2c3c 97a0 9f3c 01d4 b33b
000000e0: e021 ce3b 5384 fb3b 9620 b33c f93b 7e3c
000000f0: 3e1a a53b 3f68 e23c 4399 dd3c 0126 913c
00000100: fa17 fe3b 7443 c23c 15af 473c 03e9 e93c
00000110: 1f3c 7a3c b851 0abc b3e7 0a3a 62e0 d83c
00000120: e952 343c 689f 423c 8c0f 863c a127 8e3c
00000130: 8152 203b de10 723c 3410 763c 1a9d 813b
00000140: 61d4 473c 0c7f 803c 9c5f c03c 98fa 483c
00000150: dd8a 2a3d 0475 b7bb 7b93 bc3b 311e 073a
00000160: e580 943c 228c 713c d3e0 563c 24dc 3a3c
00000170: ef82 ae3b 75a3 e93b bf0a 883c d87c 903c
00000180: 3bee ac3c 454a b1bb e41f 2c3b 0e6a 803a
00000190: 621d 3d3b 3d99 b63a 6a00 d53c 4a2b 8f3c
000001a0: 08a7 f93b 3b37 193a 10b1 933c 3e2d 873c
000001b0: 5a73 6f3c 778b 883c 0d4b 033c fe43 313b
000001c0: 020e 363b 02fe 0fb9 8adc 5a3c 1b8d 843c
000001d0: 5cba a83c 255b 7a3b 078a d83c d8df 993c
000001e0: 2c66 023c 8525 013c b767 723c 5229 bd3b
000001f0: f4bf e1bb 0755 44bb 6f0d 3b3c c408 bb3c
0.008580822 0.0046271114 0.0005157579 -0.006348366 0.023671629 0.011496765 0.029008698 0.011426787
0.017877929 0.022505129 0.018464247 0.005881691 0.018605188 0.028925072 0.024241729 0.02103211
0.017541856 0.030044962 0.024827627 0.02840355 0.015936144 0.016100923 0.014312839 -0.0030931032
0.0058382857 0.0004882722 0.015806943 0.005247669 0.013006183 0.011064516 0.010943856 0.012507874
0.020968951 0.011725729 0.0155874025 0.014694904 0.021321587 -0.002400627 0.031098897 0.012157767
0.004716333 0.01731383 -0.020469809 0.010195239 0.016807918 0.013687544 0.009082706 0.019038156
-0.0045138095 0.03818845 0.015871586 0.01961835 -0.0011039271 0.010539263 0.019485755 0.0054879193
0.0062906593 0.0076756864 0.021866124 0.015517228 0.0050385287 0.027637599 0.02705062 0.017718317
0.007754323 0.023713805 0.012187739 0.028553491 0.015273123 -0.008442335 0.0005298808 0.026474182
0.011006095 0.011878826 0.016364835 0.01735288 0.0024463239 0.014774529 0.015018512 0.0039554955
0.012196631 0.01568558 0.02348309 0.012266777 0.041636337 -0.005598666 0.0057548857 0.000515434
0.018127868 0.014742883 0.013115126 0.011405025 0.005325667 0.0071300813 0.016606687 0.017637655
0.02110969 -0.005410465 0.0026264125 0.0009797232 0.0028856625 0.0013931167 0.026001174 0.017476697
0.0076187886 0.0005844717 0.018028766 0.016501065 0.014614904 0.016668065 0.008013499 0.0027048583
0.0027779345 -0.00013732168 0.013358245 0.016180566 0.020596676 0.00382013 0.026433004 0.018783495
0.00795893 0.0078824805 0.014795235 0.005772748 -0.0068893377 -0.0029957907 0.011416777 0.022831328

network_body.linear_encoder.seq_layers.2.weight f4 [128, 128]
00000000: 5837 803c 06ad 00bd d192 b63c 8b12 a33d
00000010: 2552 983d 5a1f 663d 8d2c 273e 1d3e 1f3d
00000020: 7c29 3abe efda 3fbd fdef 56bd ce36 a63d
00000030: 5744 49bc 9e07 c2bc 1947 f23c 77d8 8e3b
00000040: cdef 493e ed69 a53b 09fc 1cbe 6517 a03c
00000050: 6844 65be 99f2 a43d 38e4 543e cc63 32be
00000060: 7ef8 893d b676 10bd e61a 0d3e 2b02 523e
00000070: 797d 793e d032 3dbd fa4f 513d dd43 edbc
00000080: 3027 7bbd 50ff 183d da92 03be 86d7 b2bd
00000090: 5568 993e 348e 3a3e 0c91 963d 9cd7 c5bd
000000a0: 5086 443d 7457 923c 122e d93c 962c 5b3d
000000b0: 117e 1abe d8be fa3d 775c 48be b92b e33c
000000c0: 601a c3bc 16e7 54bd c6aa 88bd e3cf 1f3e
000000d0: 2c6c 01be c54d a0bd 5c8a f43c 1601 2f3d
000000e0: 742f f4bc efec 513d cf54 fe3d f66d 30be
000000f0: 8b3f a4bd 4c57 1b3d 7f85 083d 77b7 07bd
00000100: 89fb 11be 5887 063e dfe6 283e 4a11 1b3e
00000110: 1dc8 c73b 9666 12be 78a9 483e b772 bdbd
00000120: 724e 0abe 2a38 63be fa96 153e 8841 58be
00000130: b25d a8bd a417 33bd dab7 81bd b8d6 103e
00000140: 9319 643c a8ba 013e 6028 193d c464 da3d
00000150: 8afc e9bd c603 3d3e c478 a6bd 1bcf a03d
00000160: e916 93bd fd1a 9a3d e56b 603e 44c7 b6bd
00000170: a985 68bd 622b c93c f85e 173e 2958 a8bd
00000180: 843e f13c e9d1 ad3b c750 3b3e e308 043e
00000190: 02b5 5bbd 0057 be3c a67c 90bd 78b9 4e3d
000001a0: 63a2 d0bd 4f31 8ebc 5a58 143e 1eae 683d
000001b0: d49f 133d 9d3d f2bd d27d 223e 586e 5e3d
000001c0: a246 163d 2d1b d23d 44e5 573e ef7c d1bd
000001d0: 8459 8b3d 3112 0a3c 10ea a2bd 32e3 0bbe
000001e0: b47c 1f3e 9d3d 62bc 9f76 053d 553e cd3b
000001f0: b867 2ebe 4ce5 17bd 6aba 9a3d 27c9 343d
00000200: c9b9 c03d 479f 85bd 957d d8bd 51e8 563d
00000210: e720 cbbd ceda 86bd dcb8 81be dbf6 51be
00000220: 12f8 02be fccc c73c 4d14 943d f1e9 8a3d
00000230: 98f9 91bd 5ffa 373d 056f c0bc ab21 763d
00000240: 054f 5dbd c637 44be 8db1 eb3d ce94 c13d
00000250: 6958 203d ff89 2fbe b413 38bd 0c9d 40bd
00000260: 87cd 01be bc4a cebd 4f43 1d3e 7f5c 42be
00000270: a549 3cbd 808f 473c d394 e03d 1af0 853d
00000280: d094 253e c8df 803d 9d98 1bbb 7fb8 19be
00000290: 8202 253e 4dbc aabd fb06 debd 2675 fabc
000002a0: 0c5f 56be d894 613d 0e15 05be 7f21 d4bc
000002b0: e1f0 883e 4168 b3bb 9ce6 a3bb fc66 163e
000002c0: 6cca 2fbd 8b9a f73d 1c60 d03c 457b 5e3e
000002d0: 319b 20bc 9650 473e bfac e6bd 526e b7bd
000002e0: 0cf0 4b3c dc78 ba3d c077 373d b2d1 553b
000002f0: 7c91 2fbc 614d 263d f6da 293e e99e 853d
00000300: f4b5 fe3d 4b08 97bc 01bc 693d 8fb9 f2bd
00000310: bcf7 15bd 816a c5bc 2b19 1abe 8dd4 c83d
00000320: 684b c5bd 8482 993d fe36 6d3c 68ad 853e
00000330: caf0 c7bd cb84 543e e59e 003e 11cf cbbd
00000340: 7b7d 68be 1a91 6f3d 62ef ea3d 2ab1 b23d
00000350: 1635 40bd 16bb 66bd c4b0 c8bd bd1b 983e
00000360: a7cb 793d 8f99 833c 9769 a33c 182d e6bc
00000370: 5848 fd3d ef30 163e 1372 453d ba3c 4e3d
00000380: f55d 3ebc 5c06 f33d a790 0d3d c257 8f3d
00000390: cdaa 6c3d 8df5 29bc 34ef 32bd 9fa6 64be
000003a0: ac31 acb9 55b6 623d 3574 8d3d 3218 a8bd
000003b0: 2667 453e 0366 1f3d 2143 613e bb08 e13d
000003c0: d598 103e f974 b93a 690b 9b3d 999f 47be
000003d0: 0fb6 d3bd d543 c33d 1d1e 663d e00d 473b
000003e0: a8f1 153b 8c97 c93d 7888 cb3d 9f94 6f3d
000003f0: 546c 313e 40ff 323d aee0 40bc 7d45 c03d
0.01565139 -0.031415008 0.022286804 0.07962521 0.07437543 0.056182243 0.16325589 0.038877595
-0.18179888 -0.04683965 -0.052474964 0.08115922 -0.01228436 -0.023685273 0.029574918 0.0043593007
0.19720383 0.0050480277 -0.15330519 0.019542405 -0.22389376 0.08054084 0.20790184 -0.17420882
0.06736849 -0.03526946 0.13779792 0.2050864 0.2436427 -0.046191037 0.051101662 -0.028963024
-0.06131667 0.03735286 -0.12848988 -0.08732514 0.29962412 0.18218309 0.07351884 -0.09660265
0.047979653 0.017863967 0.026511226 0.053509317 -0.15087153 0.12243432 -0.19566523 0.02773081
-0.023816288 -0.051978193 -0.066731974 0.15606646 -0.1263892 -0.07827333 0.029851131 0.042725645
-0.029807784 0.051251348 0.1241852 -0.17229447 -0.08019932 0.03792505 0.033330437 -0.03313395
-0.1425611 0.13137567 0.1649432 0.15143314 0.0060968534 -0.14296946 0.19595897 -0.09250396
-0.13506487 -0.22189394 0.14608374 -0.21118748 -0.08220996 -0.043723717 -0.06333895 0.14144409
0.013922113 0.1266886 0.03739202 0.10663751 -0.11425121 0.1845847 -0.08128503 0.07852002
-0.07182104 0.07524679 0.21916158 -0.08924726 -0.056768093 0.02455682 0.14782321 -0.0821994
0.029448755 0.0053045643 0.18292533 0.12894015 -0.05363942 0.023234844 -0.07055025 0.050469846
-0.10187223 -0.017357497 0.14486828 0.056806676 0.036041096 -0.11828158 0.15868309 0.05430445
0.036688454 0.102590896 0.21083552 -0.10228907 0.06804183 0.008427189 -0.079548 -0.13660887
0.15574914 -0.013808635 0.03258383 0.006263534 -0.17031753 -0.03708391 0.07555087 0.044137146
0.09410436 -0.0652452 -0.10570828 0.052467648 -0.09918385 -0.065847024 -0.2533635 -0.20504324
-0.12789944 0.024389736 0.072304346 0.06782902 -0.07127684 0.044916507 -0.023490438 0.060090702
-0.054030437 -0.19161901 0.115084745 0.0945221 0.039146814 -0.17142485 -0.044940665 -0.04702477
-0.12676059 -0.10072848 0.15357707 -0.18980597 -0.04596867 0.012180209 0.10965886 0.06539936
0.16170049 0.06292683 -0.0023742088 -0.15011786 0.16114238 -0.08336697 -0.10841175 -0.030573439
-0.20934695 0.05507359 -0.12996313 -0.025894878 0.26746276 -0.0054750745 -0.005001856 0.14687723
-0.042917654 0.120900236 0.025436454 0.21726711 -0.0098026255 0.19464335 -0.112634175 -0.08956589
0.012447368 0.09105083 0.044791937 0.003262621 -0.0107158385 0.040601138 0.16587433 0.0652445
0.124370486 -0.018436572 0.05706406 -0.11851799 -0.03661321 -0.024098637 -0.15048663 0.09806166
-0.09633523 0.07495597 0.014478443 0.2610886 -0.09762724 0.20753781 0.12560613 -0.09951604
-0.22704117 0.05848799 0.1147144 0.087251976 -0.046925627 -0.056330763 -0.0979934 0.29708663
0.060985234 0.016064433 0.01994781 -0.028097674 0.12367314 0.14667104 0.048204493 0.050350882
-0.011619081 0.11866447 0.03456178 0.0699916 0.057780076 -0.010373485 -0.043685153 -0.22329186
-0.00032843405 0.055349667 0.0690693 -0.0820774 0.1927763 0.038915645 0.21998264 0.10987993
0.14120801 0.001414924 0.07570536 -0.19494475 -0.10337459 0.09534422 0.056181062 0.003037326
0.0022879634 0.098433584 0.09938139 0.058491345 0.1732648 0.043700457 -0.011772318 0.09388254
