Assets/Match3/Scripts/_/Match3Agent_16x10x5_G.onnx (onnx, 793928 bytes, 6 tensors)

action_model._discrete_distribution.branches.0.bias f4 [294]
0	0x3dbf92d1	0.09354175
1	0xbb1234a8	-0.0022309218
2	0x3d82a3de	0.063789114
3	0x3d39884e	0.045296006
4	0x3c74ac24	0.01493362
5	0x3c0bb6d4	0.008527476
6	0x3abc2e6b	0.0014357095
7	0x3d4e4a56	0.05036386
8	0x3d808304	0.06274989
9	0x3d68015c	0.05664192
10	0x3d7c9283	0.061663162
11	0x3da46f00	0.08028984
12	0x3d475a6a	0.04867021
13	0x3d8bd5a7	0.0682786
14	0x3dc2d2e6	0.09512882
15	0xbbd27897	-0.006423067
16	0x3d8a6acd	0.06758652
17	0x3cf0f325	0.029412815
18	0x3c9dc722	0.019259993
19	0x3d485787	0.048911598
20	0x3c8b3c26	0.016996454
21	0xbd0e59f3	-0.03475375
22	0x3c121421	0.008915932
23	0x3d17ef9a	0.037093736
24	0x3cc8d590	0.024515897
25	0x3ccee180	0.025254011
26	0x3c786e05	0.015162949
27	0x3c842a76	0.016133528
28	0x3c151507	0.009099252
29	0x3d5acdd9	0.053418968
30	0x3d31987c	0.04335831
31	0x3d51b436	0.051197253
32	0x3d7daac9	0.06193045
33	0x3cfb59a4	0.030682392
34	0x3d971ea9	0.07378895
35	0xbb628b95	-0.003456806
36	0xbc3d37a8	-0.011548914
37	0x3d11b2ed	0.035571028
38	0x3d82ac7a	0.063805535
39	0x3cbf7574	0.023371436
40	0x3d312d02	0.043255813
41	0xbc006968	-0.007837631
42	0x3bfbc493	0.0076833456
43	0xbb4d842b	-0.0031359296
44	0x3d015133	0.03157158
45	0x3d38a16e	0.045075826
46	0x3b63a0a8	0.003473321
47	0x3b0f2d8f	0.0021847223
48	0x3ce789af	0.028263895
49	0x3d197ff4	0.03747554
50	0x3cdb8e1a	0.026801158
51	0x3d37bef3	0.044859838
52	0x3d6726ca	0.056433477
53	0x3bbe7604	0.0058124084
54	0x3d0f2ce6	0.034954928
55	0x3c7b2468	0.015328504
56	0xbd456c83	-0.048199188
57	0x3d2eb8f7	0.042656865
58	0xbc4f1649	-0.012639591
59	0x3b646b74	0.0034854086
60	0xbd12239d	-0.035678495
61	0x3d845928	0.06462318
62	0x3ce86eba	0.028373111
63	0x3cea13a7	0.028573824
64	0x3d894072	0.06701745
65	0x3d0ef5c7	0.03490236
66	0x3d2b1b46	0.041774057
67	0xbd2941d4	-0.041322544
68	0xbd9d7632	-0.076885596
69	0x3cf337e0	0.02968973
70	0xb9a6c7a0	-0.0003181072
71	0xbd1ee0d2	-0.038788624
72	0x3d18ff6b	0.03735296
73	0xbcd0e616	-0.025500339
74	0xbcaef590	-0.021357328
75	0x3d3d0f25	0.04615702
76	0x3d75d744	0.060019746
77	0x3b63c44d	0.0034754456
78	0x3d6bdba9	0.05758253
79	0x3caa6cbf	0.020803807
80	0x3d83f560	0.06443286
81	0x3d6822de	0.056673877
82	0x3ca9c5d9	0.020724224
83	0x3d13a700	0.036047935
84	0xbd046247	-0.032320287
85	0x3cbfbad3	0.023404514
86	0x3c3afed5	0.011413296
87	0x3ad16cb6	0.0015977833
88	0xbc317b1e	-0.010832576
89	0x3d645161	0.05574167
90	0x3ba05a77	0.0048935967
91	0x3c96aaaa	0.018391926
92	0x3d16b271	0.03679127
93	0xbcccde5f	-0.025008379
94	0xbc893ed7	-0.016753597
95	0x3cf14624	0.029452391
96	0x3d82487a	0.0636148
97	0x3d3aa906	0.04557135
98	0xbc7d5a46	-0.015463417
99	0x3ce7cdb4	0.02829633
100	0x3d4b0654	0.04956658
101	0x3bb8a2ac	0.0056346264
102	0x3ca47641	0.02007592
103	0xbbd39a2b	-0.0064575872
104	0x3d368f3d	0.044570196
105	0x3d84d508	0.06485945
106	0xbc7ebaf5	-0.015547504
107	0xbcc641a0	-0.024201214
108	0xbd5b36d3	-0.05351908
109	0xbc958acf	-0.018254666
110	0xbd5655ee	-0.052328043
111	0x3d2ad772	0.04170937
112	0xbd1ce45e	-0.038303725
113	0x3c3caf72	0.011516439
114	0xbd0e7456	-0.034778915
115	0xbd119344	-0.035540834
116	0x3d57d71e	0.052695386
117	0xbcad2345	-0.021134982
118	0xbc9daa5e	-0.019246276
119	0x3dd9e39e	0.10639118
120	0x3d4c1361	0.04982317
121	0xbb9b5eba	-0.004741517
122	0xbd4346a9	-0.04767481
123	0xbbbfe0f8	-0.005855676
124	0xbd83b867	-0.06431656
125	0xbbbb7db2	-0.005721771
126	0xbc913210	-0.017724067
127	0xbcda3ce9	-0.026640372
128	0xbbce5b84	-0.0062975306
129	0xbd3c667e	-0.04599618
130	0xbcb59c07	-0.022169126
131	0xbcacc15a	-0.021088291
132	0xbcec7ea4	-0.02886898
133	0xbd739f24	-0.05947794
134	0x3dd4e75a	0.10395689
135	0x3d290746	0.041266702
136	0xbc4e08ae	-0.012575312
137	0xbc27595c	-0.010214176
138	0xbd794717	-0.060858812
139	0xbd3eafef	-0.046554502
140	0x3a325f4c	0.00068043615
141	0xbdd34d41	-0.103174694
142	0xbd99bdf7	-0.07506936
143	0xbd0c20df	-0.034211036
144	0xbd2a88dc	-0.041634426
145	0xbcbb6def	-0.022879569
146	0xbd412dfc	-0.047162995
147	0xbcffd8c5	-0.031231293
148	0xbd53c265	-0.05169906
149	0x3c810486	0.015749227
150	0x3d026d04	0.031842247
151	0x3d4b7df7	0.049680676
152	0x3d2d45f4	0.04230304
153	0x3c840b06	0.016118538
154	0x3c61772d	0.013761324
155	0x3db0017e	0.085940346
156	0x3c8b1b2e	0.016980734
157	0xbccffb61	-0.025388421
158	0x3b296f8b	0.0025853838
159	0x3d19d24d	0.037554074
160	0x3d884418	0.06653613
161	0x3d854f78	0.06509298
162	0x3da003cb	0.078132235
163	0x3d9592b6	0.073033735
164	0x3d6a1033	0.057144355
165	0x3d3dced5	0.04633983
166	0xbcb8bb67	-0.022550298
167	0xbc3f611b	-0.011680867
168	0x3c73c0c4	0.014877502
169	0x3d3b950c	0.04579644
170	0x3d8f2847	0.06990104
171	0x3cc6b309	0.024255292
172	0xbbf6e22f	-0.0075342874
173	0x3cc250e3	0.02372021
174	0xbbc39f3b	-0.0059699095
175	0x3d2d3dc1	0.04229522
176	0x3cc5b377	0.024133427
177	0x3d3d4eae	0.046217613
178	0x3cfa7eee	0.030578103
179	0x3c16d64c	0.009206366
180	0x3cf8686b	0.030323228
181	0x3cb6b084	0.022300966
182	0x3d3d5ba1	0.046229962
183	0x3d0b50e5	0.034012694
184	0x3c396d87	0.011317617
185	0x3a93ae32	0.0011267124
186	0x3cd4c38c	0.02597215
187	0x3c7e6520	0.01552704
188	0x3d5af4b9	0.053456042
189	0x3c4b0eed	0.012393695
190	0xbd1cf494	-0.038319185
191	0xbcc4339e	-0.023950394
192	0x3bc54619	0.006020319
193	0x3d3adee1	0.04562271
194	0x3d21d533	0.039509963
195	0xbbdfb2a6	-0.0068267165
196	0x3c9902a1	0.018678011
197	0x3d8ccebc	0.06875369
198	0x3cb52a38	0.022114858
199	0x3d139d35	0.036038596
200	0x3c03ea9e	0.008051543
201	0x3d6cbf23	0.05779947
202	0x3caf7e06	0.021422397
203	0x3d068a90	0.032846987
204	0x3d771b20	0.060328603
205	0x3d4e2b31	0.05033416
206	0x3d0966de	0.033545367
207	0x3d5329df	0.051553603
208	0x3d0290dd	0.031876434
209	0x3ccfad4a	0.025351185
210	0x39d2c4ea	0.00040201034
211	0x3c92937e	0.017892595
212	0x3d789611	0.06068999
213	0xbcabd1d1	-0.020974072
214	0x3ccdd5b4	0.025126316
215	0x3c97e7b7	0.018543107
216	0x3d3c7d0d	0.046017695
217	0x3b31899b	0.0027090076
218	0xbcb068ee	-0.02153441
219	0xbc80e351	-0.015733393
220	0x3cb805dc	0.022463731
221	0x3d3437f9	0.043998692
222	0x3d751897	0.059837904
223	0xbc9eb450	-0.01937309
224	0x3c680bf0	0.014163002
225	0x3bbf8149	0.0058442694
226	0x3cb71872	0.022350524
227	0x3d1cc85b	0.03827701
228	0x3cfab784	0.030605085
229	0x3d110163	0.035401713
230	0x3d2316af	0.039816555
231	0x3c861b9d	0.016370589
232	0x3cee6adc	0.029103689
233	0x3d991d10	0.07476246
234	0x3d6cf324	0.057849064
235	0xbc5eee9e	-0.013606695
236	0xbcd42834	-0.025898077
237	0x3d4ba36d	0.0497164
238	0x3d8c5005	0.068512
239	0x3c3db3a5	0.011578475
240	0x3d173d07	0.036923435
241	0xbbb784b0	-0.0056005344
242	0x3d9ac88e	0.07557784
243	0x3cdedb63	0.027204221
244	0x3ca82eab	0.020530066
245	0x3d386981	0.04502249
246	0x3d3d49d2	0.04621298
247	0xbaeaf0ca	-0.0017924544
248	0xbc8c5ba6	-0.017133545
249	0x3ca4099c	0.020024113
250	0x3c6eb823	0.014570269
251	0xbd216374	-0.039401487
252	0x3c35a9db	0.01108786
253	0x3bed376d	0.0072392733
254	0xbbb26223	-0.0054438277
255	0x3d3b3b79	0.045711014

action_model._discrete_distribution.branches.0.weight f4 [294, 128]
0	0x3e3a4d45	0.18193538
1	0x3e19a5bf	0.15004633
2	0xbc075de0	-0.008262128
3	0xbe0b701a	-0.13616982
4	0xbd6d19e8	-0.057886034
5	0x3d716d0a	0.05894188
6	0x3da61293	0.081090115
7	0x3dbf5c48	0.09343773
8	0x3d9e9f5d	0.0774524
9	0xbccf79f4	-0.025326706
10	0x3d1563f3	0.036472272
11	0x3dae362b	0.085064255
12	0xbdfbb1cc	-0.122897714
13	0x3e02adfd	0.12761684
14	0xbdc69a1c	-0.09697363
15	0x3e0fcfd0	0.14044118
16	0xbe40f42e	-0.18843147
17	0x3e64b2c4	0.22333819
18	0xbd9cd812	-0.076584
19	0x3d23f03e	0.040024035
20	0x3e1819ef	0.14853643
21	0xbd8067a8	-0.06269771
22	0x3df0f6b1	0.11765803
23	0x3d460735	0.048346717
24	0xbd82367b	-0.063580476
25	0x3c935d10	0.017988712
26	0xba9958c5	-0.0011699429
27	0x3e223bdf	0.15843152
28	0x3d60013b	0.054688673
29	0x3dab9707	0.083784156
30	0x3ddcac63	0.10775068
31	0x3c6b5aef	0.014364942
32	0xbca91f17	-0.020644708
33	0xbdd913ca	-0.105994776
34	0x3e4a0950	0.19730115
35	0xbc361fbb	-0.011115964
36	0x3c2ac9c5	0.010424082
37	0x3d2e6c14	0.04258354
38	0xbcf79b81	-0.030225517
39	0xbd987ef0	-0.074460864
40	0x3dd22843	0.102615856
41	0xbdf00d9a	-0.11721344
42	0xbd0f33a8	-0.034961373
43	0x3dc08cfd	0.094018914
44	0x3d639770	0.055564344
45	0x3e3420e5	0.17590673
46	0xbce25e95	-0.02763299
47	0xbdc2d244	-0.09512761
48	0x3e1cbda9	0.15306725
49	0xbccadf7f	-0.024764774
50	0x3d448c04	0.04798509
51	0xbde872c8	-0.11350018
52	0xbdfca284	-0.12335685
53	0x3e256394	0.16151267
54	0x3e2313e0	0.1592555
55	0xbd46f1d7	-0.04857048
56	0x3de52147	0.11187988
57	0x3d9ab760	0.07554507
58	0x3e54d8b4	0.2078579
59	0xbdb57426	-0.08860044
60	0x3d72eaed	0.059306074
61	0x3e858696	0.26079243
62	0xbd6ea07a	-0.05825851
63	0x3d95955e	0.0730388
64	0x3d3fe2d3	0.046847176
65	0x3da1e4b3	0.07904949
66	0x3e43a12e	0.19104454
67	0xbd2d8272	-0.04236073
68	0xbe055ec8	-0.13024437
69	0x3c83fba7	0.016111208
70	0x3dfacb58	0.12245816
71	0xbdfcc427	-0.123421006
72	0xbcf3248c	-0.029680513
73	0x3df603eb	0.12012466
74	0x3d6c9aca	0.057764806
75	0x3e6b625e	0.22986743
76	0xbddd15b1	-0.10795153
77	0xbd42c6cd	-0.047552872
78	0xbdec1003	-0.115264915
79	0x3d93e88f	0.072220914
80	0xbdddba1f	-0.108265154
81	0xbc82484f	-0.01590362
82	0xbc6f8207	-0.014618403
83	0x3ce450c1	0.027870538
84	0xbdcdb30d	-0.10043917
85	0x3bd32645	0.006443771
86	0x3dcef59a	0.101054385
87	0x3dfafb36	0.12254946
88	0x3d7bad00	0.061444283
89	0x3dd3e339	0.10346074
90	0x3e07ca18	0.13260686
91	0xbe06210b	-0.13098542
92	0x3c139e42	0.0090099
93	0xbaa6fd3e	-0.0012740267
94	0xbd24705d	-0.04014622
95	0x3e3002a1	0.17188503
96	0x3d665ea6	0.056242608
97	0x3cb9b3da	0.022668768
98	0xbe0f1db9	-0.13976182
99	0x3dc84016	0.097778484
100	0x3e1821d9	0.14856662
101	0xbc8ab36f	-0.016931264
102	0xbd6144c7	-0.05499723
103	0x3bd803b6	0.0065922393
104	0x3dd9b36d	0.10629926
105	0x3d8ff5a1	0.07029272
106	0x3dc02c75	0.093834795
107	0xbd8105ec	-0.06299958
108	0x3dd11154	0.10208383
109	0x3d7f0a44	0.06226565
110	0xbd40751f	-0.046986695
111	0x3e064713	0.1311305
112	0x3e449102	0.19195941
113	0x3e1d443d	0.15358062
114	0x3e2d09a4	0.16898209
115	0xbc05fee3	-0.0081784455
116	0x3e2a002c	0.16601628
117	0x3e1fa5d9	0.1559061
118	0xbc16751f	-0.009183197
119	0x3c99fd34	0.018797494
120	0xbe17137c	-0.14753526
121	0xbdbd0d0a	-0.09231003
122	0xbcf40af0	-0.029790372
123	0xbd6daea7	-0.05802789
124	0x3e0bc554	0.13649493
125	0x3e0ca69d	0.13735433
126	0x3e747817	0.23873936
127	0x3d53b36a	0.051684774
128	0x3e97e200	0.29664612
129	0x3e237b05	0.15964897
130	0xbe40307e	-0.18768498
131	0xbd7a06ee	-0.061041765
132	0xbc5babc0	-0.013407648
133	0xbdf7712a	-0.12082131
134	0xbbe13d48	-0.0068737604
135	0xbd0b6bc5	-0.034038324
136	0x3cbefd7b	0.023314228
137	0x3d66b952	0.05632908
138	0x3dad2448	0.08454186
139	0xbdc54d34	-0.09633866
140	0x3b9fbb46	0.0048746197
141	0x3e62c96d	0.2214715
142	0xbea33ea0	-0.31883717
143	0xbd99ea03	-0.07515337
144	0x3dac681d	0.084182955
145	0x3e63d6c6	0.22249898
146	0x3dc4931e	0.09598373
147	0xbe1b8c8f	-0.15190338
148	0xbdd73df9	-0.10509867
149	0xbccb88a7	-0.024845434
150	0x3e09d38d	0.13459606
151	0x3d166f3c	0.036727175
152	0xbe06d93a	-0.13168803
153	0xbd023706	-0.031790756
154	0x3d6ab299	0.05729923
155	0x3dc24804	0.09486392
156	0x3d5f1ae2	0.054468997
157	0x3dda6fc5	0.106658496
158	0xbcb793ce	-0.022409346
159	0x3d0e8fd9	0.034805153
160	0xbe94ad9f	-0.29038712
161	0xbdd836a2	-0.105572954
162	0x3e203ef7	0.15649019
163	0x3e2e1c38	0.17002952
164	0x3da99ced	0.08281884
165	0x3e437050	0.19085813
166	0x3db6718c	0.08908376
167	0x3deefabb	0.11668917
168	0x3da3a6b5	0.07990781
169	0x3e104551	0.14088942
170	0x3cd51a98	0.026013657
171	0x3e2663d1	0.16249014
172	0xbcb65242	-0.02225602
173	0x3e4d5165	0.20050581
174	0xbd2748fb	-0.040841084
175	0x3e0dfad2	0.13865212
176	0x3e10c9b4	0.14139444
177	0xbb9871d1	-0.00465224
178	0xbcbd4e72	-0.023108695
179	0xbe0c7ded	-0.13719912
180	0xbe6215ab	-0.22078578
181	0x3e185d13	0.14879255
182	0x3e4ac2e0	0.19800901
183	0x3cdc681c	0.026905112
184	0x3e072aac	0.13199872
185	0x3c79c796	0.015245339
186	0x3e2b92fb	0.16755287
187	0x3d119e20	0.03555119
188	0x3d3ee395	0.046603758
189	0x3da7260c	0.08161554
190	0xbdb1f52c	-0.08689341
191	0x3da9328b	0.082615934
192	0x3de18d78	0.11013311
193	0x3d023b34	0.03179474
194	0x3e83695d	0.25666323
195	0xbd17f1ca	-0.037095822
196	0x3cc73a68	0.024319842
197	0x3d0b5ebc	0.034025893
198	0xbe2d5c33	-0.16929702
199	0xbd8fd053	-0.070221566
200	0x3d5f4822	0.05451215
201	0x3e47ff73	0.1953104
202	0x3c6141d8	0.0137486085
203	0x3e581b8e	0.21104261
204	0xbd930c44	-0.07180074
205	0xbca6c476	-0.020357352
206	0xbe1ea019	-0.1549076
207	0xbe141df7	-0.14464556
208	0x3ca2f271	0.019890996
209	0xbcdd1f46	-0.026992451
210	0x3d5f4bf5	0.054515798
211	0xbd0efd7f	-0.03490972
212	0xbd051f7b	-0.032500725
213	0x3df75350	0.120764375
214	0xbe07f24a	-0.1327602
215	0x3e0e774f	0.139127
216	0xbe4e08e9	-0.20120586
217	0x3d31e90d	0.043435145
218	0x3c8f40da	0.017486978
219	0xbe454020	-0.19262743
220	0xbd5af55c	-0.05345665
221	0xbd2c6dd4	-0.042096928
222	0xbcd2cc08	-0.025732055
223	0x3e5ad8ef	0.21371816
224	0x3e28116f	0.164129
225	0xbd756f03	-0.059920322
226	0xbe84e515	-0.25956026
227	0xbc463a9d	-0.012098935
228	0x3d01569a	0.03157673
229	0x3dabe0bc	0.08392474
230	0x3d22e14a	0.039765634
231	0x3c528cc8	0.012850948
232	0xbd171622	-0.036886342
233	0x3d46597b	0.04842518
234	0xbccadaf8	-0.024762616
235	0xbd7f2396	-0.062289797
236	0x3e5dca9b	0.21659319
237	0xbe0555ec	-0.13021058
238	0xbdc41a44	-0.09575322
239	0x3e8792be	0.26479143
240	0x3dc6382d	0.096786834
241	0x3e586fc2	0.21136382
242	0x3b112f1c	0.0022153324
243	0x3b7115f4	0.0036786767
244	0x3cef8c4e	0.029241707
245	0x3e0411bd	0.12897392
246	0xbe1576ab	-0.1459605
247	0xbd566b7a	-0.05234859
248	0xbe7ce497	-0.24696575
249	0x3d2ca986	0.042153858
250	0xbc1de012	-0.009635942
251	0xbd8629c1	-0.06550933
252	0x3dc37b36	0.09544985
253	0x3e0b58f3	0.1360815
254	0x3e866839	0.2625139
255	0x3b9b1c25	0.0047335797

network_body.linear_encoder.seq_layers.0.bias f4 [128]
0	0x3ac2d479	0.0014864347
1	0x3c1d5a8f	0.00960411
2	0xbafb5ed5	-0.0019178042
3	0x3bef8b28	0.00731029
4	0x3b9d746e	0.0048051393
5	0xbafc4ce7	-0.0019248993
6	0x3b515283	0.003194005
7	0x3b0ea9f3	0.0021768778
8	0x3a165206	0.00057342683
9	0x397849a4	0.00023678556
10	0xbb7b4cd6	-0.0038345358
11	0x3b9dbc4d	0.004813707
12	0xbb23f99f	-0.0025020612
13	0xb99b5c11	-0.000296325
14	0xba4c8645	-0.000780199
15	0x3a9e7f05	0.0012092298
16	0x3be7478b	0.007058089
17	0xbcad43d9	-0.021150516
18	0x3b27b0c0	0.002558753
19	0x3bde4721	0.0067833816
20	0x3bb85dd9	0.005626422
21	0xba7cee66	-0.0009648561
22	0x3b8ec820	0.004357353
23	0x3a28dda5	0.0006441719
24	0x3a2b477f	0.0006533786
25	0x3c04607b	0.008079643
26	0xbb6917ae	-0.0035567093
27	0xbc8473c7	-0.016168488
28	0x3bf173a3	0.0073685213
29	0xbb582bab	-0.0032985013
30	0xbb56e515	-0.0032790352
31	0x3c4ba0b0	0.012428448
32	0x3abfb11f	0.001462493
33	0x3b71e4f4	0.0036910148
34	0x3b146795	0.0022644748
35	0x3b7923b6	0.003801567
36	0xbb802be7	-0.0039114836
37	0x3a848d71	0.0010112954
38	0xbb83e42a	-0.004025002
39	0x3bf58e29	0.0074937535
40	0x3b7f1845	0.0038924378
41	0x3b896966	0.0041934727
42	0xbb218af3	-0.002464947
43	0x3c226d3c	0.009913739
44	0x3b697f98	0.003562903
45	0x3bb2f8af	0.0054617743
46	0x3c028318	0.0079658255
47	0x3a875986	0.0010326363
48	0xbb1a83b5	-0.0023577039
49	0x3b8c8f01	0.0042895083
50	0xb9f7a329	-0.00047233075
51	0x3b53abeb	0.0032298516
52	0x3a91b8ef	0.0011117737
53	0x3bfe38c6	0.0077582328
54	0x3b2224d8	0.00247412
55	0xbbbd7bba	-0.0057825716
56	0xba90b8ef	-0.0011041443
57	0x3b916e81	0.004438222
58	0xbb76a66b	-0.0037635814
59	0x38b73890	8.7366556e-05
60	0x3bc5a073	0.00603109
61	0x3a4e6cb8	0.0007874477
62	0x3a406887	0.00073397945
63	0x3bbcc38c	0.0057606157
64	0xba9cbf36	-0.0011958841
65	0x3a68ebe7	0.000888525
66	0x3ba7b1ef	0.005117647
67	0xbb090e3a	-0.002091302
68	0x3c164663	0.009172055
69	0x3bbf0e1a	0.0058305385
70	0x3c12ef96	0.008968255
71	0x3aaabc77	0.0013026138
72	0x39ffe14c	0.0004880525
73	0xb7a498e6	-1.9621522e-05
74	0x3b55cc22	0.0032622893
75	0x3b1c24a5	0.0023825553
76	0x3b6fe486	0.0036604716
77	0x3b8e5621	0.0043437635
78	0x3aa4d45b	0.0012575494
79	0x3b76a61a	0.0037635625
80	0x3adbc3b5	0.0016766699
81	0xb973c1b5	-0.00023246447
82	0x3af0759b	0.0018345596
83	0xbb6e34d5	-0.0036347408
84	0x3b9378b1	0.0045004715
85	0x3be54f9c	0.0069980156
86	0x3bdc6b20	0.0067266375
87	0xbc099d0a	-0.008399257
88	0x3abfcd22	0.0014633278
89	0x3bc2cc68	0.0059447773
90	0x3bc10941	0.0058909957
91	0x3b1a5299	0.0023547767
92	0x3b1833e7	0.0023224296
93	0x3b075bf5	0.0020654176
94	0x3b936c66	0.004499006
95	0xb85aad01	-5.2136373e-05
96	0xbb6b9690	-0.0035947897
97	0x3bebc539	0.0071951416
98	0x3c01284f	0.0078831455
99	0x3c0a4642	0.008439602
100	0x3b0ac946	0.0021177097
101	0x3bbf9d82	0.005847634
102	0x3bb8b295	0.005636523
103	0x3b32edb8	0.0027302336
104	0x3beb1222	0.0071737925
105	0x3bc76b2f	0.0060857753
106	0x3bc3b67e	0.0059726825
107	0x38e2e6c8	0.00010819506
108	0xbbd2073f	-0.006409555
109	0x3bd307dd	0.0064401464
110	0x3bb4550d	0.005503303
111	0x3a86004b	0.0010223476
112	0xb98911cc	-0.00026143936
113	0x3c204121	0.009781153
114	0xbaab67d4	-0.0013077208
115	0x39f1a25e	0.00046088075
116	0xba168245	-0.00057414576
117	0x3c05673d	0.00814229
118	0xb9fa661b	-0.0004775979
119	0x3a99625c	0.0011702287
120	0xb94a197a	-0.00019273712
121	0x3b40008b	0.0029297199
122	0x3c05eff6	0.008174887
123	0x3b9e9d0c	0.004840499
124	0x3b319413	0.0027096316
125	0x3a8d1bb5	0.0010765704
126	0x3bcac494	0.0061879847
127	0x3ba8cc14	0.005151281

network_body.linear_encoder.seq_layers.0.weight f4 [128, 1120]
0	0x3d6d6ebb	0.05796693
1	0xbdc8164f	-0.0976988
2	0xbdb1f40a	-0.08689125
3	0x3e06ef69	0.13177265
4	0xbd353286	-0.044237636
5	0x3d6e19f5	0.058130223
6	0xbecd5f97	-0.40111992
7	0x3bf25d76	0.0073963953
8	0x3c387209	0.011257657
9	0x3ae7e4a3	0.001769204
10	0xbe221a60	-0.15830374
11	0xbd5f9c00	-0.054592133
12	0x3c986db5	0.018607
13	0xbe794e2d	-0.24346228
14	0xbc919cc2	-0.017774943
15	0xbd8cdb9b	-0.06877824
16	0x3a2c977b	0.00065838516
17	0x3c728f46	0.014804667
18	0xbccc4907	-0.024937166
19	0xbb815059	-0.0039463458
20	0x3d5be64f	0.053686436
21	0x3db09c2d	0.08623538
22	0xbd2b1dc3	-0.04177643
23	0xbde1f406	-0.11032872
24	0xbd88f414	-0.06687179
25	0xbd3861ef	-0.04501527
26	0x398fc95d	0.00027425113
27	0x3cbe0ba2	0.023198906
28	0xbd6a40bb	-0.057190638
29	0x3db79f13	0.08965888
30	0xbc9d23c6	-0.019182097
31	0xbc61c327	-0.013779438
32	0xbc5c352e	-0.013440413
33	0xbac94482	-0.00153555
34	0x3b818242	0.0039522955
35	0xbde0fd44	-0.109858066
36	0xbd03005d	-0.03198277
37	0x3d1e30e0	0.03862083
38	0x3c99f23a	0.01879226
39	0x3d6657d1	0.056236092
40	0x3d9403a6	0.072272584
41	0xbe13fe4d	-0.14452477
42	0xbd8f3a9d	-0.069936015
43	0xbd49c021	-0.049255494
44	0xbdb34079	-0.087525316
45	0x3e0ddf1a	0.13854638
46	0x3d88d5d7	0.06681412
47	0xbcba8187	-0.022766842
48	0xbcb2778c	-0.02178552
49	0x3cd9de44	0.026595242
50	0xbdc1a38d	-0.09455023
51	0xbe0eb796	-0.1393722
52	0x3d1cc17b	0.038270455
53	0x3c0a9f96	0.0084609
54	0x3a8d9c6e	0.0010804066
55	0xbe000311	-0.1250117
56	0x3d10fecb	0.03539924
57	0x3c139a66	0.009008979
58	0x3ddecb8c	0.10878667
59	0xbdaaf618	-0.0834772
60	0xbe2d1806	-0.16903695
61	0x3cdc864f	0.026919512
62	0xbe890b8d	-0.26766625
63	0xbca1a1e3	-0.019730514
64	0xbd6658ce	-0.056237034
65	0x3d08a035	0.03335591
66	0x3d0d764b	0.03453664
67	0x3ca6fef3	0.020385241
68	0x3de1a4db	0.11017772
69	0xbf4decc9	-0.8043943
70	0xbdacc896	-0.08436696
71	0xbc4a2085	-0.012336855
72	0xbd03e733	-0.03220291
73	0x3c90889c	0.017643265
74	0x3b631771	0.0034651423
75	0x3dc8b925	0.098009385
76	0xbf3752b6	-0.7161058
77	0xbc76f88c	-0.015073907
78	0x3c3729f6	0.011179438
79	0x3d03e962	0.032204993
80	0xbdade443	-0.08490803
81	0x3ccfac46	0.025350701
82	0x3dc84694	0.09779087
83	0xbf27041f	-0.65240663
84	0x3cfced4d	0.030874873
85	0xbe56e8c1	-0.20987226
86	0xbbee19fa	-0.0072662802
87	0x3c9ef7b3	0.019405222
88	0x3ce66d59	0.028128313
89	0x3d8fb1a2	0.07016303
90	0xbed1fb5b	-0.41012082
91	0xbd2888b1	-0.041145984
92	0xbc2910a5	-0.01031891
93	0xbc3a18a8	-0.011358418
94	0xbc9e7fce	-0.019348051
95	0x3c1608b8	0.009157352
96	0x3d5ce3e6	0.05392828
97	0xbe7a39fe	-0.24436185
98	0xbd0df998	-0.03466186
99	0x3d2544ab	0.04034869
100	0xbc920f67	-0.01782961
101	0xbe14b5f2	-0.14522532
102	0xbd93585b	-0.07194587
103	0x3c9f8cb2	0.019476268
104	0xbd7e7328	-0.06212154
105	0xbd5b803d	-0.053589094
106	0x3d9f0fd4	0.07766691
107	0x3d59eca8	0.05320421
108	0xbd70a935	-0.05875512
109	0xbd81ad23	-0.06331851
110	0x3b643663	0.0034822456
111	0xbe2667a8	-0.16250479
112	0xbd1a8a40	-0.0377295
113	0xbcf080a7	-0.029358221
114	0x3d73376e	0.059379034
115	0xbd104afb	-0.035227757
116	0xbe0e8136	-0.13916478
117	0x3e00f55b	0.12593596
118	0xbee4b8dd	-0.4467229
119	0xbd2dd844	-0.042442575
120	0x3e153da1	0.14574291
121	0xbd6c5e15	-0.05770691
122	0x3cb3ec25	0.021963188
123	0xbd4243c0	-0.047427893
124	0x3db85029	0.08999664
125	0xbea45cae	-0.3210196
126	0xbe49519c	-0.19660038
127	0x3d61848d	0.05505805
128	0x3bc186ba	0.0059059532
129	0xbde35e48	-0.11101967
130	0x3d56bf9b	0.052428823
131	0x3d185cb1	0.037197772
132	0xbe3c6118	-0.18396413
133	0x3ca0e75a	0.019641567
134	0xbd8ce288	-0.06879145
135	0x3bbe589f	0.0058089043
136	0x3d59e35a	0.053195335
137	0xbdb65858	-0.08903569
138	0xbc99cf56	-0.018775623
139	0x3cf5d57a	0.03000902
140	0xbd020f0e	-0.03175264
141	0x3aab8a7a	0.0013087534
142	0x3db4fd7e	0.08837412
143	0xbcc9608d	-0.024582172
144	0xbc80af1b	-0.015708497
145	0xbd505c3d	-0.050869215
146	0x3c82899e	0.015934762
147	0xbc77edaf	-0.015132352
148	0x3ca8db5e	0.020612415
149	0x3ca7cb2f	0.020482628
150	0x3c9a0439	0.018800842
151	0x3d73702a	0.05943314
152	0x3c820c22	0.015874926
153	0xbe5fca5e	-0.2185454
154	0x3d45d7f1	0.04830164
155	0xbcfbea36	-0.030751329
156	0xbb6063b7	-0.0034239122
157	0x3daf1a52	0.08549942
158	0x3a806d0b	0.0009798122
159	0x3c68f690	0.014218941
160	0xbdc2eb2c	-0.09517512
161	0x3c673a9c	0.014113095
162	0x3ca8b553	0.020594275
163	0x3c68c292	0.014206545
164	0xbd24ffa3	-0.040282857
165	0x3caa37cb	0.020778557
166	0xbd7f9c62	-0.062404998
167	0xbc0afecd	-0.008483601
168	0xbcad3f49	-0.02114834
169	0x3d084656	0.033270203
170	0x3ddac6d8	0.10682458
171	0xbe0d8a96	-0.13822398
172	0xbe009f24	-0.12560707
173	0xbd22585c	-0.039635047
174	0xbddcf987	-0.10789781
175	0x3dccb339	0.099951215
176	0x3bf8b9b6	0.007590498
177	0x3bfb5910	0.007670529
178	0x3c8357d9	0.0160331
179	0x3aeb45a8	0.0017949836
180	0x3dda89e5	0.106708325
181	0xbf5cf204	-0.86306787
182	0x3d2b986e	0.041893415
183	0xbbcaa896	-0.006184648
184	0x3cc127ce	0.02357855
185	0x3cb9307e	0.02260613
186	0x3dc200dd	0.09472821
187	0xbca7629e	-0.020432767
188	0x3d572d2a	0.052533306
189	0xbc9184eb	-0.017763576
190	0x3d81b03c	0.06332442
191	0xbde46781	-0.11152554
192	0x3cbff195	0.023430625
193	0x3d031066	0.03199806
194	0xbaaf85ac	-0.0013391278
195	0xbe988bdf	-0.29794213
196	0xbccc327f	-0.024926422
197	0x3cd45c7c	0.025923006
198	0xbd49e03d	-0.049286116
199	0x3c3d8f4d	0.01156981
200	0xbdb2615b	-0.08709975
201	0xbd7c87e9	-0.06165305
202	0x3e76f87d	0.24118228
203	0x3ccc677e	0.024951693
204	0xbc4da481	-0.012551428
205	0x3cd03103	0.025413996
206	0xbd5e1f5c	-0.054229125
207	0xbd0eac6a	-0.034832396
208	0xbd388325	-0.045046944
209	0x3e66ab3f	0.22526263
210	0x3c3dcbb9	0.011584216
211	0xbd147f12	-0.036253996
212	0xbd8e1718	-0.069379985
213	0xbb0d4748	-0.002155738
214	0xbd99e481	-0.07514287
215	0xbbca155f	-0.0061670984
216	0xbbdd3b95	-0.0067514875
217	0xbc0982d5	-0.008393009
218	0xbda1e6b7	-0.079053335
219	0xbd3d0aed	-0.046152998
220	0x3df50b3b	0.11965033
221	0xbe030821	-0.1279607
222	0xbd8513ca	-0.06497915
223	0x3e15bb54	0.14622241
224	0x3d70bfb9	0.05877659
225	0xbd1063fa	-0.035251595
226	0xbe042e31	-0.12908246
227	0x3d97e6cb	0.07417067
228	0xbca11fb7	-0.019668443
229	0x3d4a62a9	0.049410496
230	0xbe2943cb	-0.16529767
231	0xbd6f759b	-0.058461767
232	0xbd8ea51b	-0.06965085
233	0x3c5387d0	0.012910798
234	0xbd457efe	-0.048216812
235	0x3d09a638	0.033605784
236	0xbc9cde2c	-0.019148909
237	0xbde07d97	-0.10961454
238	0x3cec9f46	0.028884541
239	0x3c248277	0.010040871
240	0xbd3521ce	-0.04422169
241	0x3c5ab2c8	0.013348289
242	0x3da320bd	0.07965229
243	0x3d21216f	0.039338525
244	0xbe78e9d2	-0.24307945
245	0xbe048fb4	-0.12945443
246	0x3cfe37c7	0.031032456
247	0x3bb703fb	0.0055851913
248	0x3d575dea	0.052579798
249	0x3cd223e3	0.025651878
250	0xbc0a4291	-0.008438722
251	0x3dd72dd7	0.1050679
252	0x3d50947d	0.05092286
253	0x3d24cf3b	0.040236693
254	0xbd0c290e	-0.03421884
255	0x3c7682f7	0.015045873

network_body.linear_encoder.seq_layers.2.bias f4 [128]
0	0x3c112d5f	0.008860915
1	0xbc22cbab	-0.009936254
2	0x3a89c764	0.0010511694
3	0xbbe6537d	-0.0070289955
4	0x3d1d3610	0.038381636
5	0xbc338460	-0.010956854
6	0xbcd7b519	-0.026331471
7	0x3d359fd3	0.044341873
8	0xbcf1fe15	-0.029540101
9	0xbc57677f	-0.013147234
10	0x3c651953	0.013983089
11	0xbab402e8	-0.0013733776
12	0x3baaa84c	0.005208051
13	0xbc24d530	-0.0100605935
14	0x3cfa7185	0.030571708
15	0x3d0e6092	0.034760065
16	0xbc0dbce5	-0.008650993
17	0xbd1024f0	-0.035191476
18	0x3ce3c626	0.027804445
19	0x3d3f28aa	0.04666964
20	0xbcb3b083	-0.021934753
21	0xbca680cc	-0.020325087
22	0xbbc4abe3	-0.006001936
23	0xbccb01cc	-0.02478113
24	0x3d1823d7	0.037143555
25	0xbc9cd3c4	-0.019143946
26	0xbbd40391	-0.0064701517
27	0xbcca8f08	-0.024726406
28	0xbb05ec1b	-0.002043492
29	0xbbef8206	-0.007309201
30	0x3ce78890	0.02826336
31	0xbc90bd63	-0.017668432
32	0x3c919466	0.017770957
33	0x3d2d698d	0.04233699
34	0x3bacc988	0.005273048
35	0x3b22ca50	0.0024839826
36	0x3c5e2dbc	0.013560709
37	0xbc2422b0	-0.010018036
38	0x3bf8412c	0.0075761285
39	0x3b81ec2c	0.0039649215
40	0x3c9b7150	0.01897493
41	0x3d3d3bac	0.046199486
42	0x3ccf0959	0.025273012
43	0xbc594943	-0.013262096
44	0x3c5d1191	0.013492958
45	0x3cac7cf0	0.021055669
46	0x3cba3cc4	0.022734053
47	0xbc3bce93	-0.011462825
48	0xbcbb13fa	-0.022836674
49	0x3cc57032	0.02410135
50	0x3b39c16b	0.0028344046
51	0x3c202db0	0.009776518
52	0xbc49bb5f	-0.012312739
53	0x3d2495ef	0.04018205
54	0xbc9e561c	-0.01932817
55	0xbc540b15	-0.012942095
56	0x39c91967	0.00038356634
57	0x3cbb98df	0.022900043
58	0xbc300085	-0.010742311
59	0xbc10a2bf	-0.008827864
60	0x3bbcf887	0.0057669315
61	0x3c78625c	0.015160169
62	0xba57a68e	-0.00082264177
63	0xbc45d8d6	-0.0120756235
64	0x3c994f9e	0.018714722
65	0x3cfd0994	0.030888356
66	0x3b5ac512	0.0033381623
67	0x3bd0a27f	0.0063670273
68	0x3bd05099	0.0063572642
69	0x3d1e786f	0.038689073
70	0x3c56443f	0.013077795
71	0x3c7555ce	0.014974071
72	0xbc90d2ec	-0.0176787
73	0xbc70031b	-0.014649178
74	0xbc932bf7	-0.0179653
75	0x3c8d0f36	0.017219167
76	0xbc41be9d	-0.011825231
77	0xbc7b085c	-0.015321817
78	0x3b395c80	0.0028283894
79	0xbbcb13bf	-0.0061974223
80	0x3b10c8c9	0.0022092334
81	0x3c89aa2f	0.016804783
82	0x3b9f0573	0.0048529445
83	0xbc427f6b	-0.011871199
84	0x3d863876	0.06553738
85	0x3ba7a6a0	0.005116299
86	0x3c87318a	0.016503114
87	0x3c059675	0.0081535475
88	0x3c0034c9	0.007825085
89	0xbc0a54ae	-0.008443041
90	0x3b142f17	0.0022611076
91	0xbcb1bec4	-0.02169741
92	0x3d17fa3e	0.037103884
93	0xbc6f8ab8	-0.0146204755
94	0x3ce8c6b8	0.028415069
95	0x3d2c1c0f	0.042018946
96	0x3c7faf98	0.01560583
97	0xbc1792dc	-0.009251323
98	0xbc2c6b76	-0.010523668
99	0x3d36c525	0.044621605
100	0x3c64af1a	0.013957763
101	0x3cd62b1f	0.026143609
102	0x3b9f5208	0.004862074
103	0x3c044c0c	0.008074772
104	0xbbac81e6	-0.0052645085
105	0xbcafcbdc	-0.021459512
106	0x3c01437f	0.0078896275
107	0x3c1036b4	0.008802105
108	0xbc8ba200	-0.017045021
109	0x3bb3f80f	0.0054922174
110	0x3ca06762	0.019580547
111	0x3bca9841	0.006182701
112	0xbcdba75b	-0.0268132
113	0x3b53e889	0.0032334647
114	0x3d5fe64c	0.054662988
115	0xba087bb0	-0.0005206419
116	0x3cb571a7	0.02214892
117	0x3c046415	0.008080502
118	0x3cb7141a	0.022348452
119	0x3cf852be	0.030312892
120	0x39eba66c	0.00044946687
121	0x3a69d191	0.00089194725
122	0x3b5e5c2d	0.0033929453
123	0x3c7f2cba	0.0155746285
124	0xbbc6ba63	-0.0060646995
125	0x3c4c3db5	0.012465884
126	0x3ba2abc3	0.0049643232
127	0x3d2238ba	0.03960488

network_body.linear_encoder.seq_layers.2.weight f4 [128, 128]
0	0x3ddc7710	0.10764897
1	0xbc339f02	-0.010963203
2	0xbe24a36f	-0.1607797
3	0x3da51e88	0.08062464
4	0x3d682513	0.05667598
5	0xbd289a07	-0.041162517
6	0x3d986e28	0.07442886
7	0x3e566f19	0.20940818
8	0x3d865f9b	0.06561204
9	0xbdf4d49f	-0.11954617
10	0x3b2d47e5	0.0026440558
11	0x3db75658	0.08952016
12	0xbe6326d0	-0.22182775
13	0x3c0a022e	0.008423371
14	0xbe19231e	-0.14954802
15	0xbd4327ff	-0.047645565
16	0x3c9f6fba	0.019462455
17	0x3dd0baf1	0.10191906
18	0x3e3d8ca0	0.18510675
19	0xbe025378	-0.12727153
20	0x3e3e1f88	0.18566716
21	0xbd90e587	-0.07075029
22	0x3d99687e	0.074906334
23	0xbc3f4d9c	-0.011676218
24	0xbd591502	-0.05299855
25	0xbe3e9dfd	-0.18614955
26	0x3e7e0c2a	0.24809328
27	0xbe395c61	-0.18101646
28	0x3b55cc56	0.0032623014
29	0x3dc45e0c	0.095882505
30	0xbae841fd	-0.0017719861
31	0x3da247fb	0.079238854
32	0xbd31ee0c	-0.04343991
33	0xbcc21c95	-0.02369527
34	0xbe2f7c98	-0.17137372
35	0x3e63c442	0.22242835
36	0x3d9ac763	0.07557561
37	0xbcba75aa	-0.022761185
38	0x3dc6b5cf	0.09702646
39	0x3dea2a77	0.11433881
40	0x3e0cbabc	0.13743109
41	0x3d853915	0.06505028
42	0xbde354bb	-0.111001454
43	0xbde0219b	-0.1094391
44	0xbd58000b	-0.052734416
45	0xbe95a35f	-0.29226205
46	0x3e1ee675	0.155176
47	0x3b81010b	0.003936892
48	0x3df4378d	0.11924658
49	0x3db17d1b	0.0866644
50	0x3c8f497e	0.017491098
51	0xbe219b8d	-0.15781994
52	0x3d118c3a	0.03553412
53	0x3e6d8af1	0.23197533
54	0x3dcc2a1e	0.09968971
55	0xbe506780	-0.20351982
56	0x3bdfe0e0	0.006832227
57	0x3e1a929b	0.15094988
58	0xbe67d7b2	-0.22640875
59	0x3dfe1a00	0.12407303
60	0x3d84e91e	0.06489776
61	0x3c1d30aa	0.009594122
62	0x3e6b8353	0.22999315
63	0x3deb78ac	0.11497626
64	0xbd3dfce0	-0.04638374
65	0xbdcc7a0d	-0.09984217
66	0xbe348aac	-0.17631024
67	0xbe6deb50	-0.23234296
68	0xbe6b23d4	-0.22962886
69	0x3c357c0d	0.011076939
70	0x3dfef7f9	0.12449641
71	0x3e71200b	0.2354738
72	0x3d57bcdf	0.052670356
73	0x3e13b1e0	0.14423323
74	0x3d8a0695	0.06739537
75	0x3dc3038f	0.09522163
76	0xbce3b70f	-0.02779725
77	0x3e2683ee	0.16261265
78	0x3e09f96b	0.13474052
79	0xbe2d0deb	-0.1689984
80	0x3db7d34b	0.08975848
81	0x3e3670e9	0.1781651
82	0xbebf3449	-0.37344578
83	0xbc2aa513	-0.010415333
84	0xbd930562	-0.07178761
85	0x3d5323d0	0.051547825
86	0x3e0cc185	0.13745697
87	0xbe0affee	-0.13574192
88	0x3dfcbe0a	0.123409346
89	0x3d9e5f9e	0.07733081
90	0xbd953112	-0.0728475
91	0xbe97e5b7	-0.29667446
92	0x3e34138b	0.1758558
93	0x3c15ddc9	0.009147116
94	0xbd7c47ba	-0.06159184
95	0x3e4b13fc	0.19831842
96	0xbd844792	-0.064589635
97	0x3e517cbf	0.20457743
98	0xbe1578b0	-0.1459682
99	0xbcd4fa61	-0.025998296
100	0xbd8daa84	-0.06917289
101	0xbe72d526	-0.23714122
102	0x3e3af22f	0.18256448
103	0xbd499349	-0.049212728
104	0xbe847e83	-0.2587777
105	0x3de18f5a	0.1101367
106	0x3e04e330	0.1297729
107	0xbdf44f57	-0.119291954
108	0x3d6d6a40	0.057962656
109	0x3defd880	0.11711216
110	0xbd361ced	-0.04446118
111	0x3eb407f3	0.35162315
112	0xbc89b868	-0.016811565
113	0x3e071b57	0.13194023
114	0xbd62f7ad	-0.055411983
115	0x3e0c065f	0.13674305
116	0xbddf4836	-0.10902445
117	0xbd2cbef7	-0.042174306
118	0xbdd7b781	-0.105330475
119	0x3dcee27c	0.10101792
120	0x3bc92746	0.006138715
121	0x3de18842	0.11012317
122	0xbd8eb674	-0.06968394
123	0xbe17b8ed	-0.14816637
124	0xbe675248	-0.22589982
125	0x3d977d00	0.07396889
126	0x3e2f88be	0.17142007
127	0xbd05c60e	-0.032659583
128	0x3dc75a3d	0.097340085
129	0xbe070b7f	-0.13187979
130	0x3dcf82c5	0.10132364
131	0x3c0869bc	0.00832599
132	0x3dc89dc4	0.097957164
133	0x3e02f859	0.1279005
134	0x3c029364	0.007969711
135	0xbd354417	-0.04425439
136	0x3dec270b	0.11530884
137	0xbe0f4f97	-0.13995205
138	0x3d866ff0	0.06564319
139	0xbdf1373c	-0.11778113
140	0x3e9817ca	0.2970565
141	0x3e22400d	0.15844746
142	0x3e35036e	0.1767709
143	0x3e3502e6	0.17676887
144	0x3d67a247	0.056551244
145	0x3e3ce414	0.1844638
146	0xbc4813b1	-0.012211726
147	0x3d89ffbd	0.06738231
148	0xbc52b810	-0.012861267
149	0x3dacead4	0.084432274
150	0x3c45122b	0.012028257
151	0x3d995acd	0.07488022
152	0x3dcd9d00	0.10039711
153	0xbdff5367	-0.124670796
154	0xbdab4252	-0.08362259
155	0x3c172f95	0.009227653
156	0x3dfa06fd	0.12208364
157	0x3da9bd38	0.08288044
158	0x3b916015	0.0044365027
159	0xbda8c1ad	-0.08240066
160	0x3ea79e65	0.32738033
161	0xbe14a1e9	-0.14514889
162	0xbe0bc4fa	-0.1364936
163	0x3e7304a5	0.2373224
164	0xbdf5e28a	-0.120060995
165	0xbec20b33	-0.3789917
166	0x3e7bda87	0.2459508
167	0x3e26b40c	0.1627962
168	0x3dc07d60	0.093989134
169	0xbd4de84f	-0.050270375
170	0x3c87ff27	0.016601158
171	0xbe640e49	-0.22271074
172	0xb95df681	-0.00021168032
173	0x3e053cbc	0.1301145
174	0xbe37d4f9	-0.17952336
175	0x3daf6638	0.085644186
176	0xbb542ffc	-0.0032377234
177	0xbdcd1356	-0.10013454
178	0x3e18a201	0.1490555
179	0x3e18ce2c	0.14922398
180	0x3e691735	0.22762759
181	0xbe8422fb	-0.25807938
182	0xbe3e4a50	-0.18583035
183	0x3dc9e2b2	0.09857692
184	0x3dc0577a	0.09391685
185	0x3e289560	0.16463232
186	0x3e49f281	0.19721414
187	0x3db94230	0.090458274
188	0x3dcfb797	0.10142439
189	0x3e44d968	0.19223559
190	0x3df54b11	0.119772084
191	0xbae21a42	-0.0017250257
192	0x3e1ea683	0.15493207
193	0xbde46d77	-0.11153691
194	0x3e09543b	0.13411038
195	0xbd040889	-0.032234702
196	0xbda5cbc9	-0.080955096
197	0x3e5769b8	0.21036422
198	0xbda188c0	-0.07887411
199	0x3db2f84f	0.08738767
200	0xbd8c1445	-0.068398036
201	0xbd56c2f9	-0.052432034
202	0x3ca82c75	0.020529011
203	0xbb9f8539	-0.0048681763
204	0xbcaf2e64	-0.021384425
205	0xbea4f13b	-0.32215294
206	0xbdfc637f	-0.12323665
207	0x3caa5575	0.020792702
208	0x3e517e8f	0.20458435
209	0xbc2f1004	-0.010684971
210	0xbd1931a7	-0.037400868
211	0x3e80f849	0.25189427
212	0xbcf8f332	-0.030389402
213	0xbc0cd323	-0.008595261
214	0x3d4dda88	0.050257236
215	0xbd4d23e5	-0.05008306
216	0x3e59b698	0.2126106
217	0x3df5e3c4	0.120063335
218	0xbc851258	-0.016244099
219	0xbe799d68	-0.24376452
220	0x3d95b78d	0.073104
221	0xbd8ca8e3	-0.0686815
222	0x3dfffbdf	0.124992125
223	0xbcb4dd09	-0.022078054
224	0x3e088e9f	0.13335656
225	0xbdc63acb	-0.096791826
226	0xbdc499f1	-0.095996745
227	0xbdeca901	-0.115556724
228	0x3e278226	0.16358241
229	0xbd4b26d5	-0.04959758
230	0xbd708afa	-0.05872629
231	0xbeb290d7	-0.3487613
232	0xbdffa229	-0.124821015
233	0x3c276eec	0.010219317
234	0x3db8fbfa	0.09032436
235	0xbc60b4e0	-0.013714999
236	0xbdd34844	-0.10316518
237	0xbdf4d1fb	-0.11954113
238	0xbe83bae3	-0.2572852
239	0x3e8556d7	0.26042816
240	0xbd373f52	-0.04473812
241	0xbdb341b0	-0.08752763
242	0x3e742500	0.2384224
243	0xbeaab127	-0.33338282
244	0x3e0d5960	0.13803625
245	0xbe2602e5	-0.16212042
246	0xbe4d0a98	-0.20023572
247	0x3e821b7e	0.254116
248	0x3e565197	0.20929562
249	0x3dae584f	0.08512937
250	0xbb980bb1	-0.0046400656
251	0x3c9ed48c	0.01938846
252	0xbe711585	-0.23543365
253	0xbe116034	-0.14196855
254	0x3e668ee0	0.2251544
255	0x3e661c5f	0.2247176
