Assets/Match3/Scripts/_/Match3AgentAI_20x10x6_S_4X.onnx (onnx, 38375 bytes, 6 tensors)

52 f4 [1200]
000000 3b 75 06 3d 0b cc b4 3e 85 a7 4c 3d 44 b5 27 3d
       0.032826643 0.35311922 0.049964447 0.040944353
000010 56 de 19 3d bb 4f b1 3e 08 ec 7b 3d 6d 4c 8a 3d
       0.03756555 0.34631142 0.061504394 0.06752858
000020 a5 e5 5e 3d 77 92 78 3d 20 0e 0d 3e 75 3d 86 3d
       0.054418225 0.060686555 0.1377492 0.06554691
000030 2a a9 37 3e 8b 56 b2 3d 89 bc b4 3d 1d 17 a5 3d
       0.17935625 0.08707913 0.08825023 0.08061049
000040 e7 bf 8b 3d 5e 8a a5 3d 56 26 da 3d 40 ba 0e 3e
       0.06823712 0.08083032 0.10651843 0.13938236
000050 d5 8c c3 3d bf 1a 7f 3e a1 ec c8 3d 27 91 01 3e
       0.09548346 0.24912547 0.098107584 0.12653027
000060 24 da c6 3d fd 80 e0 3d 49 6a f4 3d 07 62 4e 3e
       0.09709576 0.109621026 0.11934335 0.20154582
000070 7f 5c 2c 3e 20 bd 9e 3e 8d 95 24 3e 89 6f 4d 3e
       0.1683216 0.31003666 0.16072674 0.20062079
000080 5c 55 3e 3e 54 e7 00 3e 73 ab ce 3e 81 5e 8e 3e
       0.1858725 0.12588245 0.4036518 0.27806476
000090 e9 33 65 3e 77 be 3d 3e da 08 c0 3e 82 8b 1b 3e
       0.22383083 0.18529688 0.37506753 0.15189937
0000a0 d0 2f 41 3e 2b 54 10 3e 82 c1 3e 3e a3 8f 3f 3e
       0.18865895 0.14094608 0.18628505 0.18707137
0000b0 19 05 68 3e 80 d9 b2 3e e7 c5 a3 3e 5a 15 f9 3e
       0.22658195 0.34931564 0.31986925 0.48649102
0000c0 33 d3 ca 3e 7d b8 8e 3e ef 1d 4b 3e 6a 29 a8 3e
       0.39614257 0.27875128 0.19835638 0.32844096
0000d0 26 23 46 3e bf d9 ff 3e 96 ba 84 3e e2 21 f3 3e
       0.19349346 0.49970815 0.25923604 0.47486788
0000e0 f2 7d b5 3e fa 91 61 3e e0 7a f3 3e 98 c8 48 3e
       0.3544765 0.22028342 0.47554684 0.1960777
0000f0 21 cb 9a 3e 8a 5d 9e 3e d4 ed 84 3e 2c b4 82 3e
       0.302331 0.3093074 0.25962698 0.25528085
000100 f9 52 b8 3e 94 fd ff 3e 99 50 6e 3e 2e 27 73 3e
       0.36000803 0.49998152 0.23272933 0.23745415
000110 52 cd ee 3e e8 f0 9b 3e 8c 52 61 3e 37 ac 5a 3e
       0.46641022 0.30457234 0.22004145 0.21354757
000120 85 40 5f 3e 92 d0 63 3e 7f 28 39 3e 73 f5 4e 3e
       0.21801956 0.22247532 0.18081854 0.20210819
000130 6a 3e 6f 3e 27 a1 d9 3e 37 bf 37 3e 5b 68 fd 3d
       0.23363653 0.42505762 0.17944036 0.1237342
000140 89 5b 16 3e 39 ee b1 3e 15 17 55 3e 41 8a 1d 3e
       0.14683355 0.34752062 0.20809586 0.15384771
000150 00 0f 06 3e 33 ec e4 3e 2c 8e 65 3e 54 a3 57 3e
       0.1309166 0.44711456 0.22417516 0.21058398
000160 e1 d9 14 3e 87 5d b0 3e f0 ee 2a 3e 51 05 ed 3e
       0.14536239 0.34446356 0.1669271 0.4629312
000170 f0 d8 b7 3e 3a 23 6a 3e 3e f6 e9 3d 2a 80 76 3e
       0.35907698 0.22865 0.1142392 0.24072328
000180 e8 fa 80 3e a7 3a cb 3d 51 04 ff 3d 5e 9f ac 3d
       0.25191426 0.099232964 0.12451995 0.084288344
000190 0b c0 a2 3e 88 ec e8 3d b0 60 b1 3d 27 28 02 3e
       0.31787142 0.1137324 0.0866102 0.1271063
0001a0 7e a7 c6 3e dc 0a b1 3d f5 29 d6 3e 50 31 cb 3d
       0.3879966 0.086446494 0.41828886 0.09921515
0001b0 30 33 dc 3d 38 95 b3 3d a8 bd 82 3d 35 51 52 3e
       0.10751951 0.087686956 0.0638383 0.2053879
0001c0 62 15 cb 3d 1e 71 d2 3d 6a 6c 28 3d 51 0b 97 3d
       0.09916188 0.10275482 0.041119017 0.07375205
0001d0 9c ac 03 3e a8 0b 9c 3d e4 32 2a 3d f2 57 3b 3d
       0.12858814 0.07619411 0.04155244 0.045738168
0001e0 49 47 e7 3d 1c 89 c0 3d 3a 5e 9a 3e 1c 99 2c 3e
       0.112928934 0.094011515 0.30150014 0.16855282
0001f0 d4 60 92 3d 50 70 ba 3e ff d8 aa 3d 09 3a c1 3d
       0.07147375 0.36413813 0.0834217 0.094348975
000200 61 0a bd 3d 5b 21 59 3e a0 b7 f7 3d 7d bf b3 3d
       0.09230495 0.2120413 0.120955706 0.08776758
000210 e1 2b 04 3e 24 c8 a3 3e b8 c0 17 3e c9 75 f1 3d
       0.12907363 0.31988633 0.1481961 0.11790044
000220 b9 22 fc 3d 92 53 58 3e 1d a4 2e 3e 3e 4d ba 3e
       0.1231131 0.2112563 0.17054792 0.36387056
000230 d0 24 04 3e dd dd 1f 3e ca 27 7b 3e 7b 61 12 3e
       0.12904668 0.15611978 0.24526897 0.14294998
000240 2c 6a 1d 3e 0c c1 14 3e b4 40 56 3e cc a7 c4 3e
       0.15372533 0.14526767 0.2092312 0.3840927
000250 83 59 82 3e 84 32 0a 3e 74 02 69 3e f3 75 8f 3e
       0.25458917 0.13495833 0.22754842 0.28019676
000260 30 27 4c 3e 40 73 6b 3e 02 3d 18 3e e6 c9 e0 3e
       0.19936824 0.22993183 0.14867023 0.43904036
000270 ba 28 a1 3e 0a 56 81 3e ff c1 bd 3e ea 06 5d 3e
       0.31476384 0.25260955 0.3706207 0.21584669
000280 71 b8 fd 3e 5a bb 48 3e 27 bf 85 3e 62 1c 7f 3e
       0.4955478 0.19602719 0.261224 0.24913171
000290 ec 25 89 3e fd 87 cf 3e 6e f2 fe 3e b8 79 a6 3e
       0.26786745 0.40533438 0.49794334 0.3251474
0002a0 5b 17 fa 3e 45 b6 b8 3e 57 3c 84 3e dd e9 d2 3e
       0.48845944 0.3607656 0.25827286 0.4119405
0002b0 7b 7d 81 3e 73 bc 96 3e 0b 10 a3 3e e5 fb db 3e
       0.25291047 0.2944065 0.31848177 0.42965618
0002c0 30 fd e0 3e cf 82 8c 3e ca 70 cf 3e cf 07 93 3e
       0.43943167 0.2744355 0.4051574 0.28716895
0002d0 8c 36 d1 3e 66 1b c1 3e e2 1c 8e 3e e2 4c a9 3e
       0.40861928 0.37716216 0.2775641 0.3306647
0002e0 b2 b2 eb 3e 51 4b 9b 3e cb 0a 9d 3e 35 74 ec 3e
       0.4603477 0.303309 0.30672297 0.4618241
0002f0 57 ce a2 3e c7 0e d9 3e 20 10 b8 3e d0 c5 8e 3e
       0.3179805 0.42394087 0.35949802 0.27885294
000300 e4 20 82 3e bd 56 fa 3e a6 c1 74 3e 78 c0 62 3e
       0.2541572 0.488943 0.23901996 0.22143734
000310 d9 45 89 3e 75 56 f3 3e e8 48 93 3e 8e 4b 50 3e
       0.26811102 0.475269 0.2876656 0.20341322
000320 bc d9 81 3e ef 83 7d 3e d6 94 ef 3e 5e 27 69 3e
       0.2536143 0.2475736 0.4679324 0.22768924
000330 2e b9 77 3e d1 91 68 3e 7e 14 f4 3e a4 7b 4f 3e
       0.24191734 0.22711875 0.47671884 0.20262009
000340 a1 e5 99 3e 0f b7 91 3e 85 94 5c 3e 0c 1f e5 3e
       0.30058005 0.28459975 0.2154103 0.4475025
000350 c6 b9 3c 3e aa 99 94 3e cc 3b 25 3e 4e 82 85 3e
       0.18430242 0.29023486 0.16136092 0.26075977
000360 6b c0 fe 3e 82 a3 0e 3e 5e cc 4f 3e 76 20 0c 3e
       0.49756178 0.13929561 0.20292804 0.13684258
000370 8f 94 87 3e 56 00 e9 3e 23 3c 0d 3e 36 20 cd 3e
       0.2648053 0.4550807 0.13792472 0.40063637
000380 2e ce fd 3e 6f bb 1f 3e 99 73 08 3e c3 17 eb 3e
       0.49571365 0.15598844 0.13325347 0.45916566
000390 d1 6d 10 3e 44 36 f2 3e ec 2c e4 3d dd bf fc 3e
       0.14104392 0.47307026 0.11141381 0.4936513
0003a0 90 e7 bd 3e 99 81 51 3e ae 10 90 3d 03 0e d5 3e
       0.3709073 0.20459594 0.070344314 0.41612253
0003b0 ca 09 c7 3d ce d3 fa 3e 43 60 0d 3e 6c 1a f3 3e
       0.09718664 0.4898972 0.13806252 0.47481096
0003c0 3f 7f a1 3e 1f f6 c1 3e 48 fc 15 3e 25 4b 21 3e
       0.31542394 0.37883088 0.14647019 0.15751322
0003d0 b1 dd a2 3d 17 1b b5 3d 77 55 48 3e 5a f8 22 3e
       0.079524405 0.088430576 0.19563852 0.15915051
0003e0 00 5a c9 3e 7b 57 0a 3e 8a 4b 53 3e c2 52 77 3e
       0.39326477 0.13509934 0.20634285 0.24152663
0003f0 57 0e 78 3e ea 5b 2b 3e 3f 86 90 3e d1 17 3c 3e
       0.2422422 0.16734281 0.28227422 0.1836846

action_model._discrete_distribution.branches.0.bias f4 [370]
000000 22 e2 92 bd a6 98 98 be ce 97 99 bb 25 42 b9 bd
       -0.07172038 -0.29803962 -0.004687286 -0.09045819
000010 a7 a2 ec bd 8b ff 0d be b3 cb b8 3c 93 a8 67 3d
       -0.11554461 -0.13867013 0.022558069 0.05655725
000020 e3 55 3a be 22 9a f9 3c fe cd e7 3c 1e 9e 83 bc
       -0.18196826 0.030469004 0.028296467 -0.016066607
000030 01 f2 84 3e b1 70 b7 bd 4d 30 12 bc ab a7 aa 3c
       0.25965884 -0.08957041 -0.008922649 0.020831903
000040 8e 50 62 3d fb c5 82 be 94 2b b0 be d5 46 c0 be
       0.055252604 -0.25541672 -0.34408247 -0.3755404
000050 fd e6 66 be 4b c4 04 3e d2 1a 2a be 35 81 83 be
       -0.22549053 0.12965505 -0.16611794 -0.25684515
000060 b9 f9 11 be 1d d9 58 3e ba 73 ff 3d b7 f6 5c 3d
       -0.14255418 0.21176572 0.12473245 0.053946223
000070 ee 15 e2 bb ce 89 43 3e eb 02 c1 3c 4e a8 e6 bb
       -0.006899587 0.19095537 0.023560962 -0.0070391065
000080 0e dc dd bc bc 32 a2 bd 19 26 81 be f1 c2 4c be
       -0.02708247 -0.07919833 -0.2522438 -0.19996239
000090 46 a3 f5 bd 33 de e3 bd d3 f6 56 be f5 03 87 3d
       -0.119940326 -0.111263655 -0.20992593 0.065925516
0000a0 82 d3 b9 3d 32 07 2b bd cc 8a ce bd 11 86 d2 3d
       0.09073545 -0.04175491 -0.10085067 0.102794774
0000b0 ef 9d 2d bd 96 9c 84 3d 3f e0 0f 3e a0 71 e9 bc
       -0.042386945 0.06475179 0.14050387 -0.028496563
0000c0 67 3d 21 3e 6c 1a 91 bc 3e dc 4e 3d bc 5d 1e 3e
       0.1574608 -0.017712794 0.050503008 0.15465444
0000d0 5d b9 9d 3d 0a bc 9b bd 89 69 1f 3e fd e6 fe bd
       0.07701371 -0.07604225 0.15567602 -0.12446401
0000e0 00 cb 6f be 04 f8 da bc 59 dc 18 be 87 04 4a be
       -0.23417282 -0.026729591 -0.14927806 -0.1972829
0000f0 98 c2 fa 3c 0d 86 41 bc 88 aa 41 bd bf 1d 01 be
       0.030610368 -0.011811745 -0.047281772 -0.12609003
000100 4d da ad bc 12 4f 34 bb 36 1e 53 be 33 cf 6e 3e
       -0.021222258 -0.002751295 -0.20616993 0.23321228
000110 e4 ac 35 3d 4d b0 fd 3d 72 c3 c6 3d 75 69 36 be
       0.044354334 0.12387142 0.09705247 -0.17813666
000120 02 b8 93 3d 47 10 c1 bc 0f 81 53 bb 5c 10 70 3d
       0.07212831 -0.023567332 -0.003227297 0.05860935
000130 0d 95 6e be 09 41 c1 bd 36 d6 49 bd 52 f4 2e bd
       -0.23299046 -0.094362326 -0.049276553 -0.04271347
000140 76 97 65 3d 85 45 a1 bc 7b da 34 3e 40 df d4 3c
       0.056052648 -0.01968647 0.17661469 0.02598536
000150 a7 fe 0b be 93 28 a1 3d bb 48 47 3e f9 6d 0b 3e
       -0.13671361 0.07869067 0.19461338 0.1361617
000160 73 d9 44 bd b8 91 45 3c 97 2c 08 bc 09 12 97 3d
       -0.04805894 0.012058668 -0.008311412 0.07376487
000170 12 6e e3 39 2e 70 8a bc 8d 47 32 3d e0 4a ff bd
       0.00043378823 -0.016899195 0.043525267 -0.12465453
000180 44 0f 34 be a6 b7 7c bd ab bf 8b bd 5b e9 d7 3c
       -0.17583948 -0.06169858 -0.06823667 0.02635639
000190 da dd 2f 3e 23 e1 af 3d cb aa 0a bd 04 bd 23 3c
       0.17174473 0.08587863 -0.033854287 0.009993795
0001a0 36 af 82 3d 0b f1 46 3e 2b b5 4e 3e 12 4e ff 3d
       0.06381075 0.19427888 0.20186298 0.124660626
0001b0 e4 d5 9f bd 79 76 18 3d 6b 5d 13 3e be 9d 0e 3e
       -0.07804468 0.03722236 0.14391105 0.13927361
0001c0 a6 66 7c bd b6 fa 71 be 97 d3 3c bb b1 99 91 bd
       -0.06162133 -0.23630795 -0.002881264 -0.071093924
0001d0 1f 65 94 bd f5 cd 34 bd 5e 80 f6 3d 29 78 15 3e
       -0.0724585 -0.04414173 0.12036203 0.14596619
0001e0 25 3d a8 bd b3 9e 11 3e 0c 48 72 3d b4 d5 74 bc
       -0.082147874 0.14220695 0.05915074 -0.014943529
0001f0 3c 8b e6 3d a5 03 d1 bc 67 c2 d2 bd 05 9a 48 3e
       0.112570256 -0.025514433 -0.102909856 0.19590004
000200 9b 56 ac bc 5e 0d da bd 0e 7e 39 be fd b6 9f 3c
       -0.02103739 -0.10647081 -0.18114492 0.019496435
000210 29 2e ab bd 09 40 62 be c7 a9 51 be d6 a5 6c bd
       -0.08358414 -0.2209474 -0.20474921 -0.05777534
000220 b4 5e 53 3d c0 c2 02 3e fe f6 83 3d 37 08 ec 3d
       0.051603988 0.12769604 0.064435944 0.11525004
000230 66 53 98 3d e9 db 04 bd 9a 11 08 bd 9c fe b5 3d
       0.07437782 -0.032436285 -0.03321991 0.088864535
000240 57 a1 06 3d 73 e9 ec 3d 9b 25 ca 3d 2b c0 d2 bd
       0.03286871 0.115679644 0.09870454 -0.102905594
000250 7e b6 04 3d 3f 89 3e bd 99 c5 a4 3c 6d 82 6b 3d
       0.0324006 -0.046517607 0.020113753 0.05749743
000260 57 a3 ed bd 23 09 89 bd f6 88 37 bd 02 4a 52 bd
       -0.1160342 -0.06691196 -0.04480835 -0.05134011
000270 91 b5 e2 3c ab 27 9a bc c1 59 d9 3d 8b dc d5 3d
       0.027674468 -0.018817743 0.10612822 0.10442456
000280 79 44 7a bd 9b b9 94 3e dc 1f df 3c 38 11 19 be
       -0.061100457 0.29047856 0.027236871 -0.14947975
000290 e5 ef 0f 3e 89 bf 84 bb 4f fb be bc 1e 5e ff bb
       0.14056356 -0.004051153 -0.023313193 -0.007793202
0002a0 cd c6 17 bc 09 77 d9 bd 32 34 10 bd 2e 23 c9 bd
       -0.009263706 -0.10618407 -0.035206027 -0.09821163
0002b0 36 0b c3 bc 17 32 e4 3d 74 b1 98 3d 28 fa 94 3d
       -0.023809057 0.111423664 0.074557215 0.07274276
0002c0 56 a9 07 3c 99 84 93 bd 19 a7 f1 bd 3e 7b 5c bd
       0.008280119 -0.07203025 -0.117994495 -0.05382847
0002d0 48 1d 14 bd d6 e0 f1 bd 36 b0 72 3d ff 63 05 be
       -0.036160737 -0.11810462 0.05925008 -0.13026427
0002e0 92 1c 9c bd 3e 2c 00 bd 67 57 04 3e f9 7d 0a be
       -0.07622637 -0.031292193 0.12923966 -0.13524617
0002f0 cc cd a0 3d b3 12 30 3e 60 ea 95 be 26 15 54 be
       0.07851753 0.17194633 -0.29280376 -0.20711192
000300 8d 1f 9e be d9 26 15 be 93 95 46 bd 0e 13 89 be
       -0.30883446 -0.145656 -0.04848249 -0.2677235
000310 2b 37 53 be b4 eb 8e bc d4 69 3e 3b 5f 7d 19 3d
       -0.20626514 -0.017446376 0.0029054778 0.03747308
000320 03 90 29 3e 20 6c d7 3b c8 d8 2e be 86 91 b0 bb
       0.16558842 0.006574169 -0.17074883 -0.0053884415
000330 e7 88 aa bb 7f 63 c6 3d c1 32 b1 bd 82 6c 01 bc
       -0.0052043083 0.09686946 -0.08652259 -0.007899405
000340 26 0e 85 be 2d 9d 71 3e 03 cc 2b be d3 cb 3a bd
       -0.25987357 0.23595114 -0.16777043 -0.04560454
000350 ba e7 22 be 5e 1c c1 3d 16 34 23 be 81 52 83 be
       -0.15908709 0.09429239 -0.15937838 -0.25648883
000360 6d aa 63 3d 06 7e 56 3e a2 45 ca bd c6 31 c2 bc
       0.055582453 0.20946512 -0.09876563 -0.023705374
000370 3c 08 0a 3e 92 d6 fc bc 92 c0 a0 3d c7 fc b7 bb
       0.13479704 -0.030864034 0.0784923 -0.00561485
000380 07 42 15 be 15 c8 c2 bb 46 e6 da bd ae e4 96 bc
       -0.14575969 -0.005944262 -0.106884524 -0.01841959
000390 6d f7 9e bd d9 01 7a bd 75 b9 b6 bd ae 90 87 be
       -0.077620365 -0.06103692 -0.08922092 -0.2647757
0003a0 37 4e ae bd f4 92 70 bd dd 08 54 be 0d 6b 2f be
       -0.08511012 -0.058733895 -0.20706506 -0.1713068
0003b0 27 49 98 bc 93 a1 80 bd 8d ca a1 bd 6c e3 da 3d
       -0.01858957 -0.06280818 -0.078999616 0.106879085
0003c0 53 df ce 3d 81 a8 0d 3e fb 06 86 bd d0 9c 64 bb
       0.101011895 0.1383381 -0.065443 -0.0034883507
0003d0 39 9b 05 3d 4d f0 65 3d ce 6a ef 3d ca 95 b7 3d
       0.032618735 0.05613737 0.11690293 0.08964117
0003e0 59 3a 1c 3e 4f 67 90 be d2 5e 0d 3e ac 09 32 bd
       0.15256633 -0.28203818 0.13805702 -0.043466255
0003f0 40 35 31 bd 74 96 b6 3c 6c 6c a3 bd 93 7b 09 bd
       -0.043263674 0.022288539 -0.07979664 -0.033565115

action_model._discrete_distribution.branches.0.weight f4 [370, 4]
000000 2f d1 b0 bd 84 0b 7e 3c f9 a4 c5 3d 2f f3 0a bd
       -0.086336486 0.015505675 0.09650607 -0.033923324
000010 a9 52 bc be 21 61 33 3e b4 9c 39 be d2 4a a2 bd
       -0.36781815 0.1751752 -0.18126184 -0.07924427
000020 e0 90 05 be a6 71 8f 3c 15 0d a6 bd 22 7a 4a 3c
       -0.13043547 0.017510246 -0.08107964 0.01235822
000030 fd aa b1 bd 8c db 1d bd b3 c9 2b be 1d 2a a1 be
       -0.086751916 -0.038539454 -0.16776161 -0.31477442
000040 b1 37 fe bc 94 12 96 3c cb b1 43 bd 38 ba 70 3d
       -0.031032415 0.018319406 -0.04777698 0.058771342
000050 2b c3 de bd e0 ed 95 3d d2 44 bd bd 76 f0 40 be
       -0.10877069 0.07320762 -0.09241642 -0.18841729
000060 34 bc 39 be 76 fa 64 3e 5d 96 d0 be 9c bf df bd
       -0.181382 0.22361168 -0.40739718 -0.109252185
000070 c6 24 24 3e c3 78 b0 be c0 70 21 bd e3 d7 f0 3d
       0.16029653 -0.34467134 -0.039414167 0.11759927
000080 28 23 84 bc 0a 27 82 bd 43 02 1f be bf 07 fc bc
       -0.016130045 -0.06355102 -0.15528207 -0.030765412
000090 ea 8b 66 3e 1c e1 00 be fb 0e f1 bd ec 7e 35 3d
       0.2251431 -0.12585872 -0.117704354 0.044310495
0000a0 26 ca 8c 3e 9e 25 27 bd b2 eb eb 3d 0a 18 07 3e
       0.27497977 -0.04080736 0.11519565 0.13192764
0000b0 3c e8 d4 bd 7d 9d 01 3e ac 4a 63 bd 8b 0a 9b 3d
       -0.10395858 0.12657733 -0.055491135 0.0757037
0000c0 66 fb 69 3e 95 38 dd bc ab af 5f 3e 52 80 9c 3e
       0.22849807 -0.02700452 0.21844356 0.3056665
0000d0 8d 8e 05 be d7 e0 2a 3e b1 4f a5 bd 63 31 2a be
       -0.1304266 0.16687332 -0.080718406 -0.16620402
0000e0 4a ca a4 3c 8e 14 c1 3d dd dd 25 be 07 88 f5 bb
       0.02011599 0.094277486 -0.16197915 -0.0074930224
0000f0 6e 69 aa 3d 07 cc 6a be 84 65 39 bd e8 c4 b2 3d
       0.0832089 -0.22929393 -0.04526283 0.08728963
000100 d1 75 0f 3d c0 29 8b bd 15 4f ba 3c a6 f3 34 3d
       0.035024468 -0.067950726 0.022742787 0.044177674
000110 5a 74 f0 bd 73 43 85 3c b3 55 a0 be f1 73 95 be
       -0.11740942 0.016267514 -0.31315383 -0.2919002
000120 6b 80 db bd 30 19 6f be d9 ae 5c be d7 da c1 be
       -0.10717853 -0.23349452 -0.21551074 -0.37862274
000130 84 bc 89 be 59 0b 0f be 95 46 95 be c7 e5 a8 be
       -0.26901639 -0.13969173 -0.29155412 -0.32987806
000140 ef bb 94 be 6d 35 28 be c6 66 64 be 21 8e c3 be
       -0.29049632 -0.1642663 -0.2230483 -0.38194373
000150 62 1a 2f 3e 9f 79 8d be 25 9b a7 3d 88 ab 8d 3d
       0.17099908 -0.27631852 0.08183888 0.069174826
000160 be dc 89 be b5 23 2a 3c 5a ad 6d be 3b 31 ad be
       -0.26926225 0.01038449 -0.2321066 -0.33826622
000170 34 ec 9c be ab 57 3c bb 52 22 85 be 83 3b ac be
       -0.3064896 -0.0028738778 -0.26002747 -0.33639154
000180 42 c4 a7 bd 9e e2 02 3d 2c af 0f be 1a 2b a1 bc
       -0.0819173 0.0319544 -0.14031667 -0.019673873
000190 b9 b0 b7 3d c7 53 ba 3e e4 7a 90 bd 6a e3 c0 bd
       0.08969254 0.36392042 -0.070546895 -0.09418376
0001a0 a4 dd 74 be da fb 29 3e ac 01 4a bd d0 af 11 3d
       -0.23912674 0.1659998 -0.049318 0.03556806
0001b0 75 62 6b bd f6 5b 20 ba 1e fd 57 bd aa 21 55 3e
       -0.057466943 -0.0006117219 -0.052731626 0.20813623
0001c0 9c 04 02 be 44 b3 35 3e 41 0d 93 be 3d 5a 22 be
       -0.12697071 0.17744166 -0.2872105 -0.15854736
0001d0 7d dc 6e 3e 9d 00 54 3e 33 10 0e 3e ea 13 b2 3e
       0.23326297 0.20703359 0.13873367 0.34780818
0001e0 a4 1d 50 bd db 5d 02 3e 99 54 f8 bd 02 6f 2e bd
       -0.050809518 0.12731116 -0.12125511 -0.042586334
0001f0 ee 2b 95 3c 00 36 39 3c 13 6d dd bd ce b9 bf bd
       0.018209424 0.0113043785 -0.1081182 -0.09361611
000200 7a 21 8a be 2b 9a 9a 3d df 6d c9 bc dc 47 2c be
       -0.26978666 0.075489365 -0.024588523 -0.16824287
000210 db 8b a7 bd 66 27 98 3d 10 9d 4c bd be cf 09 bf
       -0.08180972 0.0742939 -0.049954474 -0.53832614
000220 16 99 8a be 76 1b e3 bc 47 df 06 be 84 a6 11 bd
       -0.2706992 -0.027723055 -0.13171111 -0.035559192
000230 0f c8 3e be 03 92 51 be 5f a0 4b 3d 52 46 9c be
       -0.18631004 -0.20465855 0.04971349 -0.305224
000240 31 95 4c be 2a 4a 01 3c d9 82 8a be c6 d1 be be
       -0.19978787 0.007891217 -0.27052954 -0.3726942
000250 9f 51 22 bf a4 7d 66 bc 47 dd 90 be f9 45 c0 b9
       -0.63405794 -0.014068041 -0.2829382 -0.00036673227
000260 54 c3 1a be db f8 38 3e e2 f7 07 be 1f 41 63 be
       -0.15113574 0.18063681 -0.13278154 -0.2219281
000270 29 86 b4 3d 7a f7 56 3e cb 30 dc 3d 94 45 18 3e
       0.088146515 0.20992842 0.10751494 0.14870292
000280 bb 4c d1 3d 6d 4f 6c 3d 73 b8 6d 3e 8a 51 98 3e
       0.10219713 0.057692934 0.23214893 0.2974971
000290 41 e6 89 bb 46 da ea bd 6f 4b 81 bd 18 71 c3 3b
       -0.0042083566 -0.114674136 -0.06313216 0.0059644096
0002a0 0c 38 f7 3d 23 aa 4e 3e 25 e7 53 3d c4 4f 0e 3e
       0.12071237 0.2018209 0.05173411 0.13897616
0002b0 19 33 bd 3c 2d cb d7 38 7f 28 24 be 6b 2e 4c 3d
       0.023095654 0.00010289843 -0.16031073 0.049848955
0002c0 8f af c3 3d d2 0a a6 3d 5f 56 78 bd 23 30 a1 be
       0.095549695 0.081075326 -0.060629245 -0.31482038
0002d0 a0 45 24 3c a8 89 3e 3e c7 6a b3 3d f9 9e cd 3d
       0.0100263655 0.18607199 0.087606005 0.10040087
0002e0 c4 ee 24 3e 74 1a c7 3d d4 96 26 3e 37 0b 87 3d
       0.16106707 0.097218424 0.16268474 0.06593936
0002f0 cb fa 49 be a3 d7 9b 3d 85 54 5c be 31 cc 86 be
       -0.19724576 0.07609489 -0.21516617 -0.2632766
000300 e5 a8 a4 3e 2d 93 24 3e 53 41 b9 3d c0 f5 90 3d
       0.32160106 0.16071768 0.09045663 0.07078123
000310 06 d7 da bc 15 e5 2f 3e 2e 35 53 be cb d7 81 be
       -0.02671386 0.17177232 -0.20625755 -0.2535995
000320 da bb bc bd b3 be 3f 3d bc e8 92 bd b4 cc 17 bc
       -0.09215517 0.046812724 -0.07173297 -0.009265114
000330 26 76 82 3d 23 1f b6 3e 28 2c 5e be 9c 9b 13 be
       0.06370191 0.3557063 -0.21696532 -0.14414829
000340 2d 42 92 be 68 af 86 3e 73 b8 4c be f6 90 99 be
       -0.28566113 0.263057 -0.19992237 -0.2999341
000350 e7 e7 f5 bc 9f e0 d9 3d 6f 59 19 be 47 b9 1e be
       -0.030017806 0.10638546 -0.14975522 -0.15500365
000360 bf 16 91 3e d1 d5 ac bd bb e5 13 3e 90 d8 29 3e
       0.28337666 -0.0843922 0.14443104 0.16586518
000370 27 02 dc 3b 6e 96 8e 3c b9 e8 48 bd 12 11 1a be
       0.0067141238 0.017405715 -0.049050067 -0.15045574
000380 ee df b0 be 52 e3 ca bd 43 13 ac 3b e3 6e d2 be
       -0.34545845 -0.09906639 0.0052513196 -0.41100225
000390 f6 49 ee 3b bd 13 16 be 27 44 f7 bc bc d2 87 be
       0.0072720004 -0.14655967 -0.030183865 -0.26527965
0003a0 1e 04 1c bd af ab b3 bd 1c e6 3b be a7 6b 89 bd
       -0.038089864 -0.087729804 -0.18349499 -0.06709986
0003b0 58 77 b2 3d 55 a2 29 3d d1 8c d9 bd 70 6b 93 bd
       0.08714169 0.041414578 -0.10622562 -0.071982265
0003c0 af 17 44 bd 8d e7 e5 bc 6c fa b8 3d 8c 7e a6 3e
       -0.04787415 -0.028064514 0.09032139 0.32518423
0003d0 13 2c 3a be 5f 42 46 3d 48 ad a9 bd a0 c7 9a be
       -0.18180875 0.04840314 -0.08285004 -0.30230427
0003e0 c2 36 bd 3c 1b c8 0e 3e 58 de 29 bd b3 97 31 be
       0.0230974 0.13943522 -0.04147181 -0.17343025
0003f0 72 54 ec bd 37 aa 59 3d 4c 4e 18 be f5 d9 ff bd
       -0.11539544 0.053140845 -0.14873618 -0.12492744

network_body.linear_encoder.seq_layers.0.bias f4 [4]
000000 64 e5 0e 3f 11 11 f3 3e 68 5f bf 3e 53 d5 06 3f
       0.5581877 0.47473958 0.37377477 0.52669257

network_body.linear_encoder.seq_layers.0.weight f4 [4, 1200]
000000 99 67 97 be 1e 88 45 3d 3f 8b d4 bd 3a b5 66 be
       -0.29571226 0.048225515 -0.103781216 -0.2253007
000010 ab a3 21 be 48 f5 34 bd 2d 54 8b be 1c 65 74 be
       -0.1578509 -0.04417923 -0.2721266 -0.23866695
000020 61 b6 99 be 7c 4f 22 be 4d db a7 3d 08 1a f3 bd
       -0.30021957 -0.15850633 0.08196125 -0.118701994
000030 c3 da 9b 3c 1a 39 10 be e3 23 cb bd 1f 8c 41 bd
       0.019025212 -0.14084283 -0.09918954 -0.04725277
000040 e4 99 41 bd fc a3 58 be 3e c1 8c 3d 42 8f 81 bb
       -0.047265902 -0.21156305 0.068727955 -0.0039538452
000050 5e 36 da bd 1d c4 08 be 19 50 b0 3c c7 3e 98 3c
       -0.10654901 -0.13356061 0.021522569 0.018584622
000060 98 78 0c bd 75 8f 37 3b d5 55 c7 bc c3 26 a6 3b
       -0.034294695 0.002800909 -0.02433292 0.0050705387
000070 fe e1 92 bc 7e 8b 0a be 83 87 81 3d f5 c2 89 3d
       -0.017930027 -0.13529775 0.06324675 0.06726638
000080 ec 11 87 3e 43 f9 2e 3d 06 8e 57 bd 3f c0 6c be
       0.2638086 0.042718183 -0.05262568 -0.23120211
000090 36 08 a6 3d a4 24 80 3d fc b8 8b bd f2 d8 f8 3c
       0.08107035 0.06256989 -0.06822392 0.030376885
0000a0 1b c2 c5 3c c0 8e c7 bd 2a f7 e7 3d 7c 2a e0 3d
       0.024140408 -0.09744024 0.1132644 0.10945603
0000b0 3a 20 02 3d 66 f9 81 3c df 9b 2f 3d b3 57 a8 bd
       0.031769015 0.015865993 0.04287326 -0.08219852
0000c0 3d 5b bc 3c 0b 9f b0 3d 11 5d 0c be 14 5f 32 bd
       0.022992725 0.08624085 -0.13707377 -0.043547705
0000d0 9b 32 b1 3b 47 8f a9 bd 81 30 25 bd f3 e6 76 3d
       0.005407644 -0.08279281 -0.04032946 0.060278844
0000e0 07 e7 d9 bc 0f 38 8f 3d 69 06 0d be c9 72 16 3c
       -0.02659942 0.06993114 -0.13771977 0.00918264
0000f0 55 12 10 3e d7 29 02 bd 06 23 70 3d e9 01 97 3c
       0.14069493 -0.031778183 0.05862715 0.018433528
000100 e2 50 21 be 07 19 af bc 12 4a 03 bd 91 c2 f6 bb
       -0.1575351 -0.021374239 -0.03205306 -0.0075305183
000110 54 12 d8 bb f5 3c 94 3c e8 48 59 bd ba 61 02 3c
       -0.0065939818 0.018095473 -0.053048044 0.00795787
000120 d7 2b 32 be b5 f9 dc 3c 27 31 88 3d f8 63 31 3d
       -0.17399536 0.026974538 0.0665 0.04330823
000130 ff 9f 23 3e be f0 06 be 8b e9 9e bc 24 41 c0 bc
       0.15979002 -0.13177773 -0.019398471 -0.023468561
000140 05 72 f7 3d 33 b0 ab bd 6e 4b de 3c b2 6b 22 3d
       0.120822944 -0.08383217 0.027135577 0.039653488
000150 34 7e aa bd 32 c8 09 3e 48 da 1e bc 8a 24 a2 bd
       -0.083248526 0.13455275 -0.009695597 -0.079171255
000160 3b a6 a7 3d ba c9 67 be 29 33 90 3c c3 45 74 be
       0.08186003 -0.22635546 0.01760252 -0.23854737
000170 02 26 f7 3d 5a 37 08 3e 9d 9a bd 3b 94 05 e7 3c
       0.12067796 0.13302365 0.0057862536 0.028200902
000180 03 2f aa bd c5 a7 6b bd eb f6 76 3d 90 f1 84 bd
       -0.08309748 -0.057533044 0.060294073 -0.06491387
000190 05 45 0c bd ef 6b fa bd 6c 8e 48 bd 77 09 f0 bd
       -0.03424551 -0.12227618 -0.04896395 -0.11720555
0001a0 48 b5 95 bd 49 9f 03 bd 02 9c cf bc 94 13 40 bd
       -0.07309967 -0.032134328 -0.025342945 -0.04689367
0001b0 6d 01 b1 bd 4d 1e 13 3a 9e 25 ef bd 21 0d 0f 3d
       -0.0864285 0.000561212 -0.11677097 0.03492463
0001c0 a5 02 36 be a7 25 c8 bd 40 b7 93 be 68 8e fd 3c
       -0.17774446 -0.097728066 -0.28850746 0.030951694
0001d0 da 1b 16 bc 2f 67 c9 bd 9b fb 5e be 33 b0 85 be
       -0.009161914 -0.09834134 -0.21775667 -0.26110992
0001e0 ff 21 d5 3c 17 3f a6 bd d0 0b aa bd 46 d4 8e bd
       0.026017187 -0.08117502 -0.08303034 -0.06974082
0001f0 ae c4 52 be 0a 41 81 bd 18 f2 df bd e7 32 1d be
       -0.2058284 -0.06311233 -0.109348476 -0.15351449
000200 18 c0 8b be 75 5e 9a bd fe 60 80 3c bd 7d c5 bb
       -0.27294993 -0.075375475 0.01567125 -0.006026952
000210 7f 9b 4f 3d 91 bd 67 be 77 11 5c 3d 36 4a 93 ba
       0.050685402 -0.22630908 0.053727593 -0.0011237327
000220 1f 06 0f 3e 4c 39 84 3d 25 8c 83 3e f9 19 d0 be
       0.13967179 0.06456241 0.2569286 -0.40644816
000230 82 5e 47 3c 93 32 be 3c 93 26 32 3e a5 68 8f 3d
       0.0121685285 0.023217475 0.17397527 0.07002381
000240 55 08 e9 3c 39 25 e5 3d 88 ea a1 3e 00 bf e6 be
       0.028446356 0.1118874 0.31624246 -0.45067596
000250 56 0a 05 3e fc a1 27 3e 32 5c 7c 3e a6 bc c3 bd
       0.12992224 0.16370386 0.24644545 -0.09557466
000260 a5 5a 38 3e be 65 55 bb b9 0b a3 3d d4 34 44 be
       0.18003328 -0.0032561864 0.0796122 -0.19160777
000270 ee b5 8d 3d 88 e7 16 bd 93 57 ce bd 5e f7 f5 bb
       0.06919466 -0.0368419 -0.10075297 -0.007506295
000280 36 1e 05 3c 88 64 af 3c b7 f4 29 be ec 26 19 3c
       0.008124879 0.021410242 -0.16597258 0.009347659
000290 32 b6 db 3d 6a 33 7f bd 19 73 15 3d 7f 98 31 bd
       0.107281104 -0.06230489 0.03648672 -0.043358322
0002a0 b4 57 7b 3b c0 98 18 bb df cc f4 3d 34 eb da bd
       0.0038351836 -0.0023284405 0.119531386 -0.10689393
0002b0 2a 67 0e 3b 65 1b f6 bc e8 63 66 3c 27 ee ee bd
       0.002172897 -0.03004236 0.014061905 -0.11666518
0002c0 36 21 c7 bc da 07 37 3e 3a 4a 20 3e 36 e3 7c be
       -0.024307828 0.17874089 0.15653315 -0.24696049
0002d0 2f e4 17 bc d3 ad 6b 3d f2 52 93 bc 97 2c a5 bd
       -0.009270712 0.05753882 -0.017983887 -0.080651455
0002e0 7c f6 77 bd 5a c3 06 3e de 76 87 3d ee c2 97 3b
       -0.0605378 0.13160458 0.06614469 0.0046313917
0002f0 be b7 c5 3c 93 9a e1 3c aa 82 6b ba 83 7f cb bc
       0.024135467 0.027539527 -0.0008984009 -0.024841076
000300 e6 78 02 3c 61 aa b8 bc f7 b8 da 3d c6 48 b5 bd
       0.007963395 -0.02254218 0.106798105 -0.08851771
000310 ca e9 f2 3c 83 c2 0d bd ec f8 8c 3c 00 f9 5a bd
       0.029652495 -0.03460933 0.017208539 -0.05346012
000320 66 53 ba 3c 4b c9 10 bd 1a f8 be bc 95 2c 61 3d
       0.022744846 -0.035348218 -0.023311663 0.054974157
000330 e1 ff 4b 3c 49 5d 06 bd c6 db bf 3d 13 80 72 bd
       0.012451143 -0.032803807 0.0936809 -0.059204172
000340 f9 3e ff bd bc 92 20 be 9c 12 91 3e e6 74 a8 be
       -0.12463183 -0.15680975 0.2833451 -0.32901686
000350 a9 8f 9c 3d d0 cc b1 3d e0 0a 3e 3d 13 c6 86 3d
       0.076445885 0.08681643 0.04639709 0.065807484
000360 cd 76 b9 bc 88 d3 76 3d 21 70 0e 3e d0 fc 25 3c
       -0.022639656 0.060260326 0.13909961 0.010131076
000370 c1 e7 ae 3c 67 bc 4f be 08 ae 51 3c 92 cc b0 3d
       0.021350743 -0.20286714 0.01279784 0.08632769
000380 53 a1 1a bc 49 2d f4 bd 92 39 ae 3c dc da 30 be
       -0.009437877 -0.119227 0.021267686 -0.17270988
000390 71 6d 7a bd f2 49 17 be 9c 3a e8 bd d5 05 3f 3d
       -0.061139528 -0.14774302 -0.11339304 0.04663642
0003a0 cf 71 e9 3d fd 18 fa 3d 3c 2b b8 bd 24 38 6f 3d
       0.113986604 0.122117974 -0.08992621 0.05840315
0003b0 76 42 d7 bd 04 fc 61 3b b5 32 96 bc cb 67 1f be
       -0.10510723 0.0034482488 -0.018334726 -0.15566938
0003c0 51 10 b3 3a 9d d7 69 bd a9 a9 3e 3d ed 0a 2e be
       0.0013661479 -0.05709039 0.04654852 -0.16996355
0003d0 24 0c 91 be d1 5c 0a be d3 33 32 bd 3a 15 ff bc
       -0.28329575 -0.13511969 -0.043506455 -0.031138051
0003e0 da d8 89 be 6f 9d 0e 3e f6 5b a8 3e 61 73 85 3d
       -0.26923257 0.13927244 0.3288266 0.065161474
0003f0 2b e8 9d 3d c1 2e b5 3d f2 d0 b3 bd 69 41 f3 3b
       0.07710298 0.08846808 -0.087800875 0.007423569

network_body.processors.0.normalizer.running_mean f4 [1200]
000000 07 ec 8c 3a 45 9f 5a 3f d6 c7 23 3b 6f a1 db 3a
       0.0010751494 0.85399276 0.0024990938 0.0016756485
000010 f9 c0 b8 3a 6c b0 0e 3e e8 9d 78 3b a8 fe 95 3b
       0.0014095596 0.13934487 0.0037935916 0.0045774765
000020 60 6a 42 3b ae 04 72 3b 34 0c 7b 3f 85 46 8d 3b
       0.0029665455 0.003692906 0.98065495 0.004311385
000030 7b 7b 77 3f 0a 44 fa 3b ce 8c 00 3c ed 35 d6 3b
       0.9667279 0.0076375054 0.00784607 0.00653719
000040 1d 2d 99 3b 8f 63 d7 3b 78 fe 3b 3c 53 56 a2 3c
       0.0046745674 0.0065731476 0.011474244 0.019816553
000050 a4 b3 16 3c 2b fb 6e 3f 67 2f 1f 3c e4 4a 85 3c
       0.009198103 0.93352 0.009715891 0.016271062
000060 d3 e2 1b 3c 14 3f 47 3c 3d b7 6c 3c 91 bc 2d 3d
       0.009514528 0.012161035 0.014447984 0.04241616
000070 03 0b ef 3c 2d 6c 64 3f c3 5c d9 3c a0 12 2c 3d
       0.029180055 0.89227563 0.02653349 0.04200995
000080 0c c1 12 3d 77 e8 83 3c f9 89 4b 3f e9 f2 ac 3d
       0.035828635 0.016102059 0.79507405 0.08444769
000090 d9 a7 58 3d cf cf 11 3d 50 a5 54 3f b9 8f c1 3c
       0.052894447 0.035598572 0.83064747 0.023628103
0000a0 59 5d 17 3d 0a 14 a6 3c 97 6e 13 3d 70 ba 14 3d
       0.036954258 0.020273227 0.03599414 0.036310613
0000b0 4f 57 5e 3d 06 ab 11 3e 8f f3 ec 3d 91 8e 1d 3f
       0.054282483 0.14225397 0.115698926 0.61545664
0000c0 ac 98 47 3e 49 e4 ad 3d 77 09 28 3d c0 e6 fb 3d
       0.19491833 0.084908076 0.04102465 0.122998714
0000d0 af 8d 1f 3d c9 66 04 3f de 5f 94 3d 3e da af 3e
       0.03895348 0.5171934 0.07244848 0.34346193
0000e0 84 e7 16 3e 12 74 51 3d 30 ea b0 3e e3 07 24 3d
       0.14736754 0.051136084 0.3455367 0.040046584
0000f0 8e 64 d0 3d 74 70 db 3d 5c dc 94 3d a6 83 8f 3d
       0.10175429 0.10714808 0.07268593 0.07007532
000100 4a b0 1c 3e 1e 9a fd 3e 64 5c 6b 3d ab ab 75 3d
       0.15301624 0.49531645 0.057461157 0.05997817
000110 5b 20 2e 3f 05 e6 d3 3d a7 f7 50 3d 14 2b 44 3d
       0.6801812 0.10346607 0.05101743 0.047892645
000120 8d ee 4c 3d f7 e2 55 3d 47 98 0a 3d d5 c0 2e 3d
       0.050032187 0.052218404 0.03383663 0.042664368
000130 d4 51 6d 3d 00 68 43 3f 42 6a 08 3d 53 be 7e 3c
       0.057939366 0.76330566 0.03330446 0.0155483065
000140 2f 92 b4 3c 7f 07 5c 3f ea c8 39 3d d1 af c6 3c
       0.022042362 0.8594894 0.045357622 0.024253758
000150 be dd 8e 3c bd 4b 39 3f df 5c 59 3d bf 7b 3e 3d
       0.01743972 0.7238119 0.053067084 0.046504732
000160 93 e3 b0 3c ae e1 0c 3e 4a fa ea 3c 64 5e 30 3f
       0.02159289 0.13757965 0.0286838 0.6889403
000170 bb b3 1b 3e c9 ab 62 3d 4c a0 58 3c 03 f6 7c 3d
       0.1520528 0.05533961 0.0132218115 0.061758053
000180 d8 74 8b 3d 83 e5 22 3c 65 05 81 3c ff 5b ea 3b
       0.068093956 0.009942415 0.015749643 0.00715208
000190 df cd 62 3f 8b ae 56 3c 67 8e f7 3b aa 87 86 3c
       0.88595384 0.013103138 0.0075548175 0.016422112
0001a0 f9 0d 3d 3e 0f 9d f6 3b 5d 20 46 3f 6f d6 22 3c
       0.18462361 0.007526047 0.7739313 0.00993882
0001b0 88 96 3f 3c 04 cd fd 3b 4e f8 85 3b 0b b4 74 3f
       0.011693604 0.007745387 0.004088438 0.95587224
0001c0 4e a9 22 3c 21 cc 2e 3c 1b 84 dd 3a 17 19 b3 3b
       0.009928061 0.010668785 0.0016900332 0.0054656374
0001d0 17 b2 7b 3f f3 3b bf 3b b5 3a e2 3a ca 26 09 3b
       0.9831862 0.005836004 0.0017259928 0.002092766
0001e0 4e 9e 53 3c 21 0c 12 3c a6 1a cf 3d 93 b8 ef 3c
       0.012916161 0.008914025 0.10112505 0.029262817
0001f0 ea 23 a8 3b bc b7 57 3f 41 87 e5 3b 90 1b 13 3c
       0.0051312344 0.8426473 0.007004649 0.008978739
000200 ca be 0c 3c b7 eb 73 3f 5e 41 73 3c b7 45 fe 3b
       0.0085904095 0.9528155 0.014847128 0.0077597755
000210 14 cd 8a 3c a8 60 62 3f 70 04 b8 3c 40 f1 66 3c
       0.016943492 0.88428736 0.022463053 0.014095604
000220 d1 26 7c 3c bc c3 3f 3d ac 9c f5 3c 4e ca 57 3f
       0.015390114 0.046817526 0.029981934 0.8429307
000230 fd bd 8a 3c 58 c1 cc 3c 58 a8 83 3d 3b f0 aa 3c
       0.016936297 0.024994537 0.064285934 0.020866504
000240 df 5c c6 3c 3f a7 b0 3c ad eb 3b 3d 5e f3 51 3f
       0.024214206 0.021564124 0.045879055 0.82011974
000250 a7 ac 8e 3d 5f ff 97 3c c8 5b 60 3d 25 e3 af 3d
       0.069665246 0.018554388 0.05477503 0.08588246
000260 81 d5 29 3d 9d 61 65 3d a4 39 b9 3c 6e 40 3d 3f
       0.04146338 0.056001294 0.022610493 0.73926437
000270 6a 5d e4 3d f2 49 8c 3d 14 52 28 3e 57 a5 48 3d
       0.1115063 0.068500414 0.1643756 0.048985805
000280 d9 0c 11 3f 3f f1 23 3d 2b db 96 3d 39 28 88 3d
       0.5666023 0.040024992 0.07366022 0.06648297
000290 10 57 9f 3d 07 37 54 3e 7e c8 e8 3e 68 13 f6 3d
       0.07780278 0.20724116 0.45465463 0.1201542
0002a0 8c 4e c9 3e be 7e 1d 3e 74 2e 93 3d 92 cf 5d 3e
       0.3931774 0.1538038 0.071865946 0.21661213
0002b0 52 a6 8c 3d ae 52 c4 3d 63 98 ea 3d 40 21 7a 3e
       0.068676606 0.095860824 0.11454847 0.24426746
0002c0 7c dd 85 3e ac 05 a8 3d eb f6 53 3e e0 b9 b9 3d
       0.26145542 0.08204207 0.2069966 0.09068656
0002d0 97 ed 58 3e 7c dd 2f 3e b3 43 ac 3d 6b e4 ff 3d
       0.21184383 0.17174333 0.0841135 0.12494739
0002e0 4a 15 9c 3e d5 ea d1 3d ef 4c d7 3d a1 e2 9d 3e
       0.30484992 0.10249869 0.10512721 0.30836967
0002f0 79 bf e9 3d b5 89 70 3e c0 25 1c 3e 0e 08 ae 3d
       0.11413474 0.23490031 0.15248775 0.0849763
000300 da 26 8e 3d a8 73 ca 3e 97 25 79 3d d4 c7 53 3d
       0.06941004 0.39541364 0.060826864 0.051704243
000310 15 a8 9f 3d 6c 7a b0 3e ae 70 ba 3d dc 1f 31 3d
       0.07795731 0.344684 0.09103523 0.043243274
000320 1a 7f 8d 3d af 54 86 3d c7 1a 2d 3f 39 a7 60 3d
       0.06909008 0.06559121 0.67618984 0.054846976
000330 24 a8 7f 3d c2 75 5f 3d 48 9b 26 3f 68 ae 2f 3d
       0.06241621 0.054555662 0.6508069 0.042890936
000340 cf ae cd 3d f9 0e b6 3d b7 ca 47 3d d5 18 39 3f
       0.10043108 0.088895746 0.04877731 0.72303516
000350 06 31 10 3d 9a 2a be 3d 4f 21 db 3c 47 46 96 3d
       0.035203002 0.09285469 0.026749281 0.07337623
000360 3b a2 0c 3f 83 21 a2 3c b2 3d 30 3d 70 5b 9c 3c
       0.54935044 0.01979137 0.043027587 0.01908657
000370 79 64 9b 3d 61 f2 95 3e 01 e4 9e 3c 2a aa 4d 3e
       0.07587523 0.29286483 0.01939583 0.20084444
000380 31 89 de 3e d7 66 cc 3c 0f 1c 94 3c c5 aa 9a 3e
       0.43464044 0.024951382 0.018079786 0.30208412
000390 43 50 a6 3c d5 1c ad 3e 5e e7 4d 3c 9e 52 d7 3e
       0.020301944 0.3381106 0.012567369 0.4205522
0003a0 0d a5 28 3e 24 4a 33 3d 70 d6 a2 3b f0 22 64 3e
       0.16469212 0.043771878 0.0049694106 0.22278953
0003b0 39 2e 1c 3c 3a ca cc 3e fd 36 9f 3c 8d c3 af 3e
       0.009532505 0.39998037 0.0194354 0.3432888
0003c0 4c 76 e5 3d 5b 8a 53 3f 6f a8 b3 3c 7b 86 d0 3c
       0.11204204 0.8263299 0.021930901 0.02545475
0003d0 ff 6f d0 3b 99 14 01 3c d7 43 23 3d b1 00 d5 3c
       0.006361007 0.007878446 0.03985962 0.026001306
0003e0 55 0c 4f 3f 6a 52 98 3c d7 83 36 3d e8 c5 7e 3d
       0.8087819 0.018593986 0.044559326 0.062200457
0003f0 4c 32 80 3d 61 2f ec 3c 0d c8 b2 3d a5 30 0f 3d
       0.06259593 0.028831186 0.08729563 0.0349585
